outputs/ex1/cnn_robustness_analysis/20251117_235657/model.pth (torch, 37797 bytes, 10 tensors)

conv1.weight f4 [32, 3, 1]
0	0xbd977c97	-0.073968105
1	0xbd934e13	-0.07192626
2	0xbed4b61f	-0.41545197
3	0x3e173c4b	0.14769094
4	0xbeaa7be5	-0.3329765
5	0xbe8f381b	-0.27972493
6	0x3e990f78	0.29894614
7	0x3f1c0acc	0.60953975
8	0x3e578159	0.21045436
9	0xbe763124	-0.24042183
10	0x3dcf9391	0.10135568
11	0xbdcbd3e4	-0.09952524
12	0x3ea5509a	0.32288057
13	0x3dba5030	0.09097326
14	0x3ec2a574	0.38016856
15	0x3f2135b9	0.629726
16	0xbe41ecef	-0.18938039
17	0xbe4041b8	-0.1877507
18	0x3dfd273e	0.123610005
19	0x3d393f99	0.045226667
20	0x3df3a629	0.11896927
21	0xbee4fff0	-0.44726515
22	0xbf0a460c	-0.54013133
23	0xbf2c1efd	-0.67234784
24	0xbf153f6c	-0.582999
25	0xbf13b5af	-0.576991
26	0xbf16b356	-0.58867395
27	0xbf1cd803	-0.6126711
28	0xbf1d1124	-0.6135428
29	0x3eacd266	0.3375427
30	0x3edda5e3	0.43290624
31	0x3ef1304f	0.4710717
32	0x3ee23ed1	0.4418855
33	0x3e96fe15	0.29490724
34	0x3e4d7347	0.20063506
35	0xbf01f79b	-0.5076844
36	0x3f1efb4d	0.62102205
37	0xbcf67cf4	-0.03008888
38	0x3f24207a	0.64112055
39	0x3e824dbe	0.25449938
40	0x3f091a84	0.53556085
41	0x3f1be1eb	0.608916
42	0xbe0d700e	-0.13812277
43	0xbe271cf6	-0.16319641
44	0x3dd35018	0.10318011
45	0xbc6d2e7e	-0.014476417
46	0x3e0e5345	0.13898952
47	0x3ec5e838	0.3865373
48	0xbee019d9	-0.4376972
49	0xbde8c5af	-0.1136583
50	0xbf24393d	-0.6414984
51	0x3f1bbe19	0.6083694
52	0xbee2b7ff	-0.44281003
53	0x3dae39f8	0.085071504
54	0xbdce2481	-0.10065556
55	0x3e952381	0.2912865
56	0xbdc42418	-0.09577197
57	0x3bcf1ad0	0.006320335
58	0x3eee61bf	0.4655895
59	0x3f249936	0.6429628
60	0xbf05edf0	-0.5231619
61	0xbf1fc66c	-0.6241214
62	0x3d46e2b4	0.048556045
63	0x3e7debab	0.24796931
64	0x3e62b645	0.22139843
65	0x3f2511bc	0.64480186
66	0x3e68ad8d	0.22722454
67	0xbe928fc5	-0.28625312
68	0xbf178bbd	-0.591976
69	0x3f0b3dae	0.5439099
70	0x3f21948f	0.6311731
71	0xbedb8cb4	-0.42880785
72	0xbeb61de7	-0.3556969
73	0x3e84b946	0.25922602
74	0xbf1856fc	-0.5950773
75	0xbe1285a1	-0.14308788
76	0xbf2e2972	-0.6803199
77	0x3e834d9c	0.2564515
78	0xbe62274b	-0.22085302
79	0xbecc7c50	-0.39938593
80	0xbf0c375a	-0.5477196
81	0xbe873962	-0.26410967
82	0x3eafa7b2	0.3430763
83	0x3c39e24c	0.011345457
84	0x3f0d5be6	0.5521835
85	0xbe46e44d	-0.19423027
86	0xbea49da4	-0.3215152
87	0x3f287d0d	0.6581581
88	0xbf25a8f6	-0.6471094
89	0xbe25e980	-0.16202354
90	0xbecb4d56	-0.3970744
91	0x3f288e72	0.65842354
92	0x3ec08cae	0.3760733
93	0xbe944dc0	-0.2896557
94	0xbe8bb136	-0.2728364
95	0x3e8aff3b	0.2714785

conv1.bias f4 [32]
0	0xbc42263e	-0.011849938
1	0x3eaa3000	0.33239746
2	0xbebbece1	-0.36704162
3	0xbe9d9c85	-0.30783477
4	0x3bb032ca	0.0053771483
5	0x3f022f62	0.5085355
6	0x3f1782b2	0.591838
7	0x3e2135ad	0.15743132
8	0xbeba5218	-0.36390758
9	0x3eab9dbe	0.33518785
10	0x3e8026db	0.25029644
11	0x3ec6d0ee	0.38831276
12	0xbe138510	-0.14406228
13	0xbc97995f	-0.01850575
14	0x3ecdd289	0.40199688
15	0x3ec2f811	0.38079885
16	0x3ee2d67c	0.44304264
17	0xbee13660	-0.43986797
18	0x3f054206	0.5205387
19	0xbe9456cc	-0.2897247
20	0x3c6c6a6f	0.014429673
21	0xbe8162c9	-0.2527068
22	0xbddea4ab	-0.10871252
23	0x3edef8d1	0.43549207
24	0x3f0d0396	0.55083597
25	0x3e806b91	0.25082067
26	0xbebdb463	-0.37051687
27	0xbe6a27ce	-0.22866747
28	0x3f0c2f16	0.5475935
29	0xbe4eb2ee	-0.20185444
30	0xbeeeb939	-0.4662569
31	0x3e5b59a6	0.21420917

conv2.weight f4 [64, 32, 1]
0	0xbea6f2f6	-0.3260724
1	0x3d167a19	0.036737535
2	0xbda531e6	-0.08066158
3	0xbb8276fa	-0.0039814683
4	0xbd43b324	-0.047778264
5	0x3d4feebd	0.050764788
6	0x3a9a3b5d	0.0011766959
7	0xbe42b49b	-0.19014208
8	0x3c56b647	0.013104982
9	0x3e8dd3f8	0.27700782
10	0xbd9af221	-0.07565714
11	0xbdfe02de	-0.124028906
12	0xbde63a74	-0.11241618
13	0x3e2f6285	0.17127426
14	0x3e92fd8a	0.2870906
15	0xbd42b495	-0.047535498
16	0x3cef483d	0.02920925
17	0xbc59b7c3	-0.013288441
18	0x3e7f8fad	0.24957152
19	0xbdf81e87	-0.12115198
20	0x3e088151	0.1333058
21	0xbe4fbd30	-0.20287013
22	0xbe86b346	-0.2630865
23	0x3d8fe757	0.070265464
24	0xbd44b9d6	-0.04802879
25	0x3dad4e8a	0.08462246
26	0xbdd8affe	-0.10580443
27	0xbe5239a2	-0.20529798
28	0x3e348ad9	0.17631091
29	0x3e15ee26	0.14641628
30	0x3d55833f	0.05212712
31	0x3e194291	0.149668
32	0xbdaf3e3f	-0.085567944
33	0xbd970e3c	-0.07375762
34	0x3d6d616a	0.05795423
35	0xbd6c2d30	-0.05766028
36	0xbdbd7897	-0.09251516
37	0x3e2f6e26	0.17131862
38	0xbe0aab75	-0.13541968
39	0x3cf58a0d	0.029973054
40	0xbdde8016	-0.10864274
41	0x3cfad371	0.030618401
42	0x3d396127	0.045258667
43	0x3e4571d5	0.19281705
44	0x3de52d2a	0.11190255
45	0xbdbcdfe1	-0.09222389
46	0x3dc860f4	0.09784117
47	0xbe534d19	-0.20634879
48	0x3d924530	0.07142103
49	0xbd27efea	-0.041000284
50	0x3d9af108	0.07565504
51	0x3d979696	0.07401769
52	0x3d7b1fc4	0.06130959
53	0x3cf95ce7	0.030439807
54	0x3e88adab	0.26694998
55	0x3e749fd4	0.23889095
56	0xbd038496	-0.032108866
57	0xbd575e80	-0.052580357
58	0x3e07e5ce	0.13271257
59	0x3e0b98a2	0.13632444
60	0x3e667126	0.225041
61	0x3e75bede	0.23998591
62	0x3de3c645	0.11121801
63	0xbc5d9e83	-0.013526562
64	0x3d7788e5	0.060433287
65	0xbc2cc972	-0.010546075
66	0x3d4029c5	0.046914835
67	0xbe847150	-0.258677
68	0xbb645346	-0.0034839674
69	0x3e8553b7	0.26040432
70	0xbcfbe480	-0.030748606
71	0x3c300433	0.010743189
72	0xbe1bea2f	-0.15226053
73	0x3e0a571e	0.13509795
74	0x3cdd5f9d	0.027023131
75	0x3e7865a1	0.24257518
76	0x3c332ff1	0.010936723
77	0xbdfb4e1c	-0.122707576
78	0x3e8e42b6	0.2778527
79	0xbe049f79	-0.12951459
80	0x3d273a4f	0.04082709
81	0x3e07435f	0.13209294
82	0x3e6660c2	0.22497848
83	0xbe34705f	-0.17620991
84	0xbe2cc846	-0.16873273
85	0xbd30275b	-0.043006282
86	0x3dd1302b	0.102142654
87	0x3e1e9a5a	0.15488568
88	0x3e5fc839	0.21853723
89	0x3d6208f3	0.055184316
90	0xbe2bd450	-0.1678021
91	0xbdda8cff	-0.10671424
92	0x3e58ec36	0.21183857
93	0x3d57bd7a	0.052670933
94	0xbe57d100	-0.21075821
95	0x3a8f09ef	0.0010912995
96	0x3d0b6ed5	0.034041245
97	0xbd305daf	-0.043058094
98	0x3db85c29	0.09001953
99	0x3d8e3d37	0.069452696
100	0x3e606187	0.21912204
101	0x3e3eb5d1	0.18624045
102	0xbcbffa41	-0.02343476
103	0xbe205757	-0.15658318
104	0x3d15c9dd	0.036569465
105	0x3d97f6aa	0.07420094
106	0x3df84915	0.12123314
107	0x3dac748a	0.084206656
108	0x3e3a8557	0.18214928
109	0x3d6f6123	0.058442246
110	0xbd0da534	-0.034581378
111	0x3d890782	0.06690885
112	0xbe75e52d	-0.24013205
113	0x3e39d95f	0.18149327
114	0xbc556a8f	-0.013025894
115	0x3da2dea9	0.07952625
116	0xbd822dbf	-0.063563816
117	0x3e14d495	0.14534219
118	0x3e05b042	0.13055518
119	0xbe3d061f	-0.18459366
120	0xbe304062	-0.1721206
121	0x3dd2ca4a	0.1029249
122	0xbdf5a135	-0.119936384
123	0xbdd42c60	-0.10360026
124	0x3e07e262	0.13269952
125	0x3e30c197	0.17261349
126	0xbe173368	-0.14765704
127	0x3db0667f	0.086132996
128	0xbe8f775e	-0.28020757
129	0x3e50deee	0.20397541
130	0x3d5b9ae3	0.05361451
131	0x3c142fe6	0.009044623
132	0x3dee41fd	0.1163368
133	0xbdb17d69	-0.08666498
134	0x3e1bb06d	0.1520402
135	0xbdc373e2	-0.09543587
136	0xbdffda2f	-0.12492787
137	0x3e13707a	0.14398375
138	0x3dd30564	0.103037626
139	0x3e1b01ca	0.15137401
140	0xbd972032	-0.07379188
141	0x3c9c6523	0.019091194
142	0x3e28927b	0.16462128
143	0x3ddec77d	0.10877893
144	0xbe157dbf	-0.1459875
145	0x3d9f8b5c	0.077902526
146	0x3bd16629	0.0063903523
147	0xbdd23072	-0.102631465
148	0x3e466193	0.19373159
149	0x3d949271	0.07254494
150	0xbcd94823	-0.026523655
151	0x3e001372	0.12507418
152	0x3c4d4677	0.012529007
153	0x3e56c689	0.20974173
154	0x3c527035	0.012844135
155	0xbe0a9149	-0.13531984
156	0x3e097fb4	0.13427621
157	0x3e36718f	0.17816757
158	0x3d5f82e7	0.054568198
159	0xbbbda486	-0.005787435
160	0x3e3aedea	0.1825482
161	0x3e6fd48b	0.23420922
162	0x3d1e0797	0.038581457
163	0xbdf04459	-0.11731786
164	0xbe158d40	-0.14604664
165	0x3da7277d	0.08161829
166	0x3d347a14	0.044061735
167	0x3d64cea0	0.055861115
168	0x3d9e79a7	0.07738047
169	0xbd405214	-0.046953276
170	0x3dc49aef	0.09599864
171	0x3e99a5d0	0.30009317
172	0x3d11a81a	0.035560705
173	0xbe01980b	-0.12655656
174	0xbdac8fbb	-0.08425852
175	0xbe453600	-0.1925888
176	0x3e1c16f0	0.15243125
177	0x3db98115	0.090578236
178	0x3d9eca46	0.07753424
179	0x3d831742	0.064009205
180	0xbe767a1c	-0.24070019
181	0xbd74eccd	-0.059796143
182	0x3e845fc9	0.25854328
183	0x3d0b3e3b	0.033994894
184	0x3e09e484	0.13466078
185	0x3cbbcf2d	0.022925938
186	0x3e71c1be	0.23609063
187	0xbe2944f8	-0.16530216
188	0x3e3ba469	0.18324436
189	0xbb012685	-0.0019706797
190	0x3d971254	0.07376543
191	0x3d055b5a	0.032557823
192	0xbda43ca5	-0.080193795
193	0xbdddb90e	-0.10826312
194	0x3e09354e	0.1339924
195	0xbe2ff2f0	-0.17182517
196	0x3e6e97a6	0.23300037
197	0xbd7ad409	-0.06123737
198	0x3e92b14a	0.28650886
199	0xbe230720	-0.15920687
200	0x3c802f0c	0.015647434
201	0x3e1d05f0	0.15334296
202	0x3e35e669	0.17763676
203	0x3e86df1c	0.26342094
204	0x3dc3eef0	0.09567058
205	0xbd58d92a	-0.05294148
206	0xbd8bad66	-0.068201825
207	0x3e9e8659	0.30961874
208	0x3c270324	0.01019362
209	0xbd862701	-0.06550408
210	0x3d8007dd	0.062515
211	0x3e18a13d	0.14905258
212	0xbc18ba53	-0.009321767
213	0x3e0dcf10	0.1384852
214	0xbe4e68b1	-0.20157124
215	0x3e44b4b0	0.19209552
216	0x3c312af0	0.01081346
217	0x3e57fce4	0.21092564
218	0x3d6e9806	0.05825045
219	0x3e13d9f2	0.14438608
220	0x3e03dabb	0.12876408
221	0xbe0be147	-0.13660155
222	0x3d780ccb	0.060559075
223	0xbcf7dc7e	-0.030256506
224	0xbd6d111c	-0.057877645
225	0x3dfb031b	0.12256452
226	0xbe1cd712	-0.15316418
227	0xbd19c519	-0.037541483
228	0xbcad2534	-0.021135904
229	0xbd144a90	-0.03620392
230	0xbdd38232	-0.10327567
231	0xbd2103d9	-0.03931031
232	0x3e3439f6	0.17600235
233	0x3e0c320f	0.13690971
234	0xbdc69d77	-0.09698003
235	0xbe403a36	-0.18772206
236	0x3e13443f	0.14381503
237	0xbe0fea15	-0.14054139
238	0x3d8a342a	0.06748231
239	0xbd7ab3d4	-0.061206654
240	0xbdc910fd	-0.098176934
241	0x3e078682	0.13234904
242	0xbe57ad67	-0.21062241
243	0x3bd69821	0.006548897
244	0x3e237644	0.15963084
245	0x3e2826dc	0.16421074
246	0x3e3db4e6	0.18526039
247	0xbdb9e914	-0.09077659
248	0x3db95ca8	0.09050876
249	0x3e31553e	0.17317674
250	0x3e0878e3	0.13327365
251	0xbd96d28f	-0.073643796
252	0xbda5cee4	-0.08096102
253	0xbd1dc2e1	-0.03851593
254	0xbdc5e938	-0.096636236
255	0xbc74cde7	-0.014941669

conv2.bias f4 [64]
0	0x3e822d23	0.25425062
1	0xbdc38929	-0.095476456
2	0x3de981a4	0.1140168
3	0xbe0237fa	-0.12716666
4	0xbe1d6bb1	-0.15373112
5	0x3cd9e3bc	0.02659785
6	0x3e41c293	0.1892188
7	0xbe1feefd	-0.1561851
8	0xbe465b0f	-0.19370674
9	0x3df6709e	0.12033199
10	0xbe2da194	-0.16956168
11	0x3e91aa5e	0.28450292
12	0x3d280f41	0.041030172
13	0x3e17f79a	0.14840546
14	0x3e82a7d1	0.2551866
15	0x3d879cf7	0.066217355
16	0xbde25155	-0.11050669
17	0xbdca3265	-0.09872893
18	0xbe06efa5	-0.13177355
19	0xbe1e623f	-0.15467165
20	0x3e48e204	0.19617468
21	0xbd97f4ee	-0.074197635
22	0xbdb64e19	-0.08901615
23	0xbcd2e225	-0.0257426
24	0xbd52ef32	-0.051497646
25	0xbd77804d	-0.06042509
26	0x3e768282	0.24073222
27	0x3d80a981	0.0628233
28	0xbe0f9156	-0.14020285
29	0xba688e7b	-0.0008871329
30	0xbe087fd0	-0.13330007
31	0x3e00c105	0.12573631
32	0x3dd89179	0.10574622
33	0x3e29e1e5	0.16590078
34	0x3de20222	0.11035563
35	0xbe38912d	-0.1802413
36	0xbdd9db19	-0.10637493
37	0x3d4ea667	0.050451662
38	0x3e6ee6bd	0.23330207
39	0x3d8fd177	0.07022374
40	0x3d4c7b0b	0.04992203
41	0x3d89d046	0.06729178
42	0x3e218acc	0.15775603
43	0x3deb7801	0.11497498
44	0xbd0fdd31	-0.035123054
45	0x3d918d33	0.0710701
46	0x3b13e51c	0.002256698
47	0x3e0e62ec	0.13904923
48	0x3bd1b261	0.0063994383
49	0x3e300286	0.17188463
50	0xbdb7b085	-0.08969215
51	0xbda18090	-0.078858495
52	0x3c941094	0.018074311
53	0xbdcf66b5	-0.10127012
54	0x3e822b6c	0.25423753
55	0xbd7559de	-0.059900157
56	0xbc0a7e0a	-0.008452902
57	0xbe1f569d	-0.15560384
58	0x3d062c02	0.032756813
59	0xbde848b5	-0.11341993
60	0x3d3e22e5	0.046419997
61	0x3cce0dd9	0.025153087
62	0x3e696a0c	0.2279436
63	0xbd20f2da	-0.0392941

conv3.weight f4 [64, 64, 1]
0	0xbdb1c7a5	-0.08680657
1	0xbdefecee	-0.117151126
2	0xbd61634c	-0.055026338
3	0xbdc78252	-0.097416535
4	0xbdae14c4	-0.085000545
5	0xbe009356	-0.12556204
6	0x3ddc2ee9	0.10751135
7	0x3de083d6	0.10962646
8	0xbd7c225f	-0.061556216
9	0x3b305880	0.002690822
10	0xbc92fbe8	-0.017942384
11	0x3d731c98	0.05935344
12	0x3c21f809	0.009885796
13	0x3d8e05ac	0.069346756
14	0x3d2313a8	0.039813668
15	0xbd061a20	-0.03273976
16	0x3d10d099	0.035355184
17	0x3d73171b	0.059348207
18	0x3ded00b6	0.11572401
19	0xbe08f77a	-0.13375655
20	0x3d78c210	0.060731947
21	0xbdb77bcb	-0.089591585
22	0x3c938c70	0.018011302
23	0x3d949f56	0.072569534
24	0xbd9ca93a	-0.07649465
25	0xbbd18d78	-0.006395038
26	0xbdfa2169	-0.12213404
27	0x3c9c5e43	0.019087916
28	0xbde61930	-0.11235273
29	0x3d81eeb3	0.063443564
30	0x3d2d8f66	0.042373084
31	0xbd93a590	-0.07209313
32	0x3c1966e8	0.009362914
33	0xbd3fc078	-0.046814412
34	0x3b80ebdf	0.003934368
35	0xbdef27e0	-0.116775274
36	0xbc9414d8	-0.018076345
37	0x3d23a224	0.03994955
38	0xbdc55fc7	-0.09637409
39	0x3da3fa6b	0.08006748
40	0xbd8c4a56	-0.06850116
41	0x3d526d04	0.051373497
42	0x3cba2f28	0.022727564
43	0xbd49b810	-0.0492478
44	0xbc910388	-0.01770188
45	0xbb241125	-0.0025034633
46	0x3d70a247	0.05874851
47	0xbc5cc7da	-0.013475383
48	0x3d08c590	0.033391535
49	0x3dc59af4	0.096486956
50	0xbc8b7fc0	-0.01702869
51	0x3d90f5b8	0.07078117
52	0xbdbf8544	-0.0935159
53	0x3d24b3c4	0.0402105
54	0xbdfe94c2	-0.12430717
55	0xbc8cf6f8	-0.017207608
56	0x3d9c0d20	0.07619691
57	0x3dcd1198	0.10013121
58	0x3daeb988	0.08531481
59	0x3d54e127	0.051972535
60	0xbd8cdcd2	-0.06878056
61	0x3d7a62e7	0.061129477
62	0xbd9405d4	-0.07227674
63	0x3d90742a	0.070534065
64	0xbd2d56cf	-0.042319115
65	0x3cec19a0	0.028820813
66	0x3d95938c	0.07303533
67	0xbe0be49c	-0.13661426
68	0xbd0d51c7	-0.034501817
69	0x3e2b2678	0.16713893
70	0x3d16fc63	0.03686179
71	0x3e181173	0.14850406
72	0x3e24dfbf	0.16100977
73	0x3d2b89ac	0.04187934
74	0xbc3be060	-0.011467069
75	0xbd0dd8d8	-0.034630626
76	0x3d2c4370	0.0420565
77	0x3c0945c0	0.008378446
78	0xbe005e58	-0.1253599
79	0xbdf95f92	-0.12176432
80	0x3dfe24fe	0.124093994
81	0x3d7ed488	0.062214404
82	0xbdbdfc90	-0.09276688
83	0x3dc8bf9f	0.09802174
84	0x3e0d936c	0.13825768
85	0x3dedfd02	0.11620523
86	0x3cd5e8b6	0.026111942
87	0xbd5edc0c	-0.05440907
88	0xbde7296f	-0.112872
89	0x3dca5f92	0.0988151
90	0x3b82c9a9	0.003991325
91	0x3b2f2883	0.0026727028
92	0x3d090beb	0.03345863
93	0x3ca03064	0.019554324
94	0x3e5695f6	0.20955643
95	0xbc787434	-0.015164424
96	0xbd03a0e2	-0.03213585
97	0x3d9bfc36	0.07616465
98	0x3c8b2d86	0.01698948
99	0x3e3989c9	0.18118967
100	0xbdbbd8f0	-0.09172237
101	0x3e2a6845	0.16641338
102	0xbe44a9a2	-0.19205335
103	0x3d8ff58d	0.07029257
104	0x3dda87d9	0.10670442
105	0xbe1ff93d	-0.1562242
106	0xbddf1cae	-0.10894142
107	0xbdba8f67	-0.09109383
108	0xbe135aab	-0.14390056
109	0x3e028a9b	0.12748186
110	0x3e1a2476	0.15052971
111	0x3dd6c0da	0.10486002
112	0x3e5d1cf8	0.21593082
113	0xbc39849f	-0.011323123
114	0xbe01d9b0	-0.12680697
115	0x3e13954f	0.14412425
116	0xbe31ed0f	-0.17375587
117	0x3e4e46f9	0.20144261
118	0xbe07d3e5	-0.13264425
119	0xbe3a58a3	-0.18197875
120	0x3d80fae5	0.06297854
121	0xbb2f0004	-0.002670289
122	0x3de8c386	0.11365418
123	0xbdff4cad	-0.124657966
124	0xbc722951	-0.014780358
125	0xbc896908	-0.016773716
126	0xbd2592f9	-0.040423367
127	0x3dcba138	0.099428594
128	0xbdd53401	-0.104103096
129	0x3dda0473	0.1064538
130	0xbe2fb84c	-0.17160147
131	0xbd7441a3	-0.05963291
132	0x3ce6e4c4	0.028185256
133	0x3d4dd319	0.050250147
134	0x3d057930	0.032586277
135	0x3c90e668	0.017687991
136	0x3e14e306	0.14539728
137	0x3d22a5ae	0.039708786
138	0xbcd13b67	-0.02554102
139	0xbdcb85ea	-0.099376515
140	0x3d833ca2	0.06408049
141	0xbd9dc2c2	-0.07703163
142	0xbdb2fa88	-0.08739191
143	0xb9742192	-0.00023282159
144	0xbde47109	-0.11154372
145	0x3ee59b14	0.44844878
146	0xbcc6e870	-0.024280757
147	0x3d15eb74	0.0366015
148	0xbd6b004f	-0.05737334
149	0x3de002db	0.10938045
150	0x3e004a28	0.12528288
151	0xbd778658	-0.060430855
152	0x3da349e2	0.079730764
153	0xbe345740	-0.17611408
154	0xbc08f753	-0.008359748
155	0x3c72b5c1	0.014813841
156	0x3b9f83d5	0.0048680105
157	0x3d997dd2	0.074947014
158	0xbd0e3dff	-0.034727093
159	0xbe2b3fd8	-0.16723573
160	0xbe947acb	-0.28999934
161	0xbe15ff44	-0.14648157
162	0x3cc9202f	0.02455148
163	0xbd7d8258	-0.061891884
164	0x3e25388b	0.1613485
165	0xbe17fd4a	-0.14842716
166	0x3b8a4dc4	0.004220696
167	0xbd93fd59	-0.072260566
168	0xbda71ef5	-0.081602015
169	0xbd831616	-0.06400697
170	0xbe621f20	-0.22082186
171	0x3e3e7bc2	0.18601897
172	0x3e4eac02	0.20182803
173	0xbd5b83cd	-0.053592492
174	0xbe2cf795	-0.1689132
175	0xbc7a1ff6	-0.015266409
176	0x3deb1a69	0.11479647
177	0xbe142fc7	-0.1447135
178	0x3e3c8fd0	0.18414235
179	0x3d07cf15	0.033156473
180	0x3ca23777	0.019801838
181	0x3e191bd0	0.14952016
182	0x3da81090	0.08206284
183	0x3e21c519	0.15797843
184	0x3dd3e836	0.10347025
185	0xbc249963	-0.010046336
186	0x3ca22ec1	0.019797685
187	0x3de1e797	0.110305004
188	0x3e43a3c8	0.19105446
189	0x3e1cd20e	0.15314505
190	0xbe4e7be4	-0.20164448
191	0x3c001ad0	0.007818893
192	0xbd82afa1	-0.06381155
193	0x3e061980	0.13095665
194	0xbbfda89b	-0.0077410466
195	0x3d9b7564	0.0759075
196	0x3dc9377a	0.098250344
197	0x3d414e6d	0.047193933
198	0xbd7a0015	-0.061035234
199	0xbddfc436	-0.10926096
200	0x3d9d07e8	0.076675236
201	0x3cc0079e	0.023441132
202	0x3d9c6698	0.07636756
203	0xbdae7391	-0.08518136
204	0x3d3ef161	0.046616916
205	0x3da49eb4	0.08038083
206	0xbdd00b40	-0.10158396
207	0xbd627dc2	-0.055295713
208	0x3d699370	0.057025373
209	0x3e5a69bc	0.21329397
210	0xbce02cc8	-0.027365103
211	0xbdfa3844	-0.12217763
212	0xbd8c695a	-0.06856032
213	0xbddd0a67	-0.10793
214	0x3a9bc734	0.0011884929
215	0x3cf48998	0.029850766
216	0x3e6d681b	0.23184244
217	0xbdedf724	-0.11619404
218	0x3db6f29d	0.089329936
219	0xbda22ea5	-0.07919053
220	0xbd039cc3	-0.03213192
221	0x3db64051	0.08898986
222	0x3e0b983f	0.13632296
223	0xbd8381bc	-0.06421229
224	0x3cd66206	0.026169788
225	0xbd82231a	-0.06354351
226	0xbe15b63f	-0.14620303
227	0x3d7d1f8c	0.061797664
228	0x3e3cfbeb	0.18455474
229	0xbe27f56d	-0.16402216
230	0x3a9fe6a0	0.0012199469
231	0xbdf2707c	-0.11837861
232	0x3d60b366	0.054858588
233	0xbe2f90b7	-0.17145048
234	0x3d6ecbd9	0.058299873
235	0x3deeafe0	0.11654639
236	0x3b56e790	0.003279183
237	0x3de834f6	0.113382265
238	0x3d8c2667	0.06843262
239	0xbcb642b9	-0.022248613
240	0x3c8960df	0.016769825
241	0xbd6fa2da	-0.058504917
242	0x3e12f489	0.14351095
243	0x3d927937	0.07152026
244	0x3c0d5bb2	0.008627819
245	0x3e1f0612	0.1552966
246	0x3d2ff9bf	0.042962786
247	0x3b0d1c84	0.002153189
248	0x3e390bbc	0.18070883
249	0x3c86f729	0.016475277
250	0xbd899d8a	-0.06719501
251	0x3df59274	0.11990824
252	0x3e14c351	0.14527632
253	0xbd7e972b	-0.062155884
254	0xbcb657c9	-0.022258656
255	0xbdf2609a	-0.118348315

conv3.bias f4 [64]
0	0xbda3938b	-0.07987126
1	0xbd807887	-0.06272989
2	0x3ce79836	0.028270822
3	0xbe0fc79d	-0.1404099
4	0xbdfd19e5	-0.123584546
5	0xbe1d4ff8	-0.15362537
6	0x3d989a08	0.07451254
7	0xbda6e240	-0.081486225
8	0xbc863f6b	-0.016387662
9	0xbd3d2c66	-0.04618492
10	0xbd5ca026	-0.053863667
11	0xbe0897cd	-0.13339157
12	0xbe1591cd	-0.146064
13	0xbccb360e	-0.024806049
14	0xbd86bdb5	-0.065791525
15	0x3d0c3d22	0.03423799
16	0xbdd73c8f	-0.105095975
17	0xbcfae86f	-0.030628411
18	0xbd7d429d	-0.061831106
19	0xbd8d0746	-0.06886153
20	0x3c11f7b8	0.008909158
21	0xbe105269	-0.14093937
22	0xbd56832c	-0.05237119
23	0xbddc5cb0	-0.10759866
24	0x3b901bce	0.004397846
25	0x3c07716e	0.00826679
26	0xbe0b753a	-0.13618937
27	0x3e2a2f0b	0.16619508
28	0x3b81d213	0.0039618104
29	0x3e27ccf7	0.16386782
30	0xbe2dc385	-0.16969116
31	0xbdd8d32a	-0.10587151
32	0xbd4b50d2	-0.049637623
33	0xbdededc2	-0.11617614
34	0xbde4e168	-0.11175805
35	0xbd1bfc69	-0.038082514
36	0x3d9d8e57	0.07693165
37	0xbcc7ecdf	-0.024404941
38	0x3da015d8	0.07816666
39	0xbe21f5f5	-0.15816481
40	0xbdba416b	-0.09094509
41	0x3e5bb55a	0.21455899
42	0xbe2b5fa2	-0.167357
43	0xbe19abe4	-0.15006977
44	0xbb9dd609	-0.0048167747
45	0xbd294376	-0.0413241
46	0x3da57c73	0.080803774
47	0x3e1b9ec3	0.15197282
48	0xbd059072	-0.032608457
49	0xbe185860	-0.14877462
50	0xbbe8bfeb	-0.0071029565
51	0x3c03d58a	0.008046517
52	0x3d8b5042	0.06802417
53	0x3da18620	0.078869104
54	0x3df3f4c7	0.11911922
55	0x3d7b8e96	0.061415277
56	0x3e401fd8	0.18762147
57	0x3cc86fcc	0.024467371
58	0x3d92773a	0.07151647
59	0x3c6cede9	0.014461019
60	0xbdb47437	-0.08811229
61	0x3e16ab75	0.14713843
62	0x3c54c062	0.012985321
63	0x3e5deae8	0.21671641

fc.0.weight f4 [32, 64]
0	0x3db2fc2a	0.08739503
1	0x3dc5cc9c	0.09658167
2	0xbcbabb13	-0.022794282
3	0xbdc47423	-0.09592464
4	0xbc6e2dc1	-0.014537276
5	0xbce87a6d	-0.02837869
6	0x3d38a639	0.045080397
7	0xbdcef656	-0.101055786
8	0x3c816c52	0.015798721
9	0x3e325166	0.17413864
10	0x3e35b2a9	0.17743935
11	0xbdbd849b	-0.09253808
12	0x3d00fbad	0.031490017
13	0xbe5a35fe	-0.21309659
14	0x3deb804f	0.11499082
15	0x3e0ae005	0.13562019
16	0xbe25d4e0	-0.16194487
17	0xbdfed920	-0.12443757
18	0xbe1020bd	-0.14074989
19	0xbcb6e27f	-0.022324799
20	0xbe1e5cfd	-0.1546516
21	0x3da6eb18	0.08150309
22	0x3dc334a5	0.095315255
23	0xbd84864f	-0.0647093
24	0xbdacb512	-0.08432974
25	0xbdc485e0	-0.09595847
26	0xbc4bb2dc	-0.01243278
27	0x3e3973e5	0.18110617
28	0xbe24399f	-0.16037606
29	0x3e1d05fc	0.15334314
30	0xbe0a6d7e	-0.1351833
31	0xbdee778d	-0.11643896
32	0xbd21f95c	-0.03954445
33	0x3d4c6544	0.049901262
34	0x3d8a4190	0.06750786
35	0x3c7c1176	0.015385022
36	0x3bf3876d	0.0074319155
37	0xbc131077	-0.0089760935
38	0xbd29bf74	-0.04144235
39	0xbdc0dfe5	-0.094177045
40	0xbd6e4b76	-0.058177434
41	0x3e41acee	0.18913624
42	0xbe3d178f	-0.18466018
43	0x3ce6f4d3	0.028192913
44	0x3a6ed60e	0.0009110876
45	0x3d92eb61	0.07173801
46	0xbb9dbb94	-0.004813621
47	0x3ce3066d	0.027713025
48	0xbe0ff2f9	-0.1405753
49	0xbe0d50e7	-0.13800393
50	0x3dc413a9	0.095740624
51	0x3bd065e1	0.006359801
52	0x3c796abf	0.015223204
53	0x3d1abd8a	0.037778415
54	0x3e1c5cc5	0.15269764
55	0x3dea7f7e	0.114500985
56	0x3e0c2959	0.13687648
57	0xbe178ec3	-0.14800553
58	0x3d137ed7	0.036009636
59	0x3e3d6f4e	0.1849949
60	0xbd9635aa	-0.07334454
61	0xbd043f89	-0.032287154
62	0x3bac6f79	0.005262312
63	0x3e0b2bff	0.13591002
64	0x3defa83b	0.11702009
65	0xbdef1b73	-0.116751574
66	0xbdf931b3	-0.121676825
67	0x3c6183ca	0.013764331
68	0x3d9c324f	0.07626783
69	0xbd93b7ab	-0.07212766
70	0xbde48ecf	-0.11160051
71	0xbd75a618	-0.059972852
72	0x3c94a82a	0.018146593
73	0x3d358ff9	0.044326756
74	0x3d0e23f6	0.034702264
75	0x3ca33c78	0.019926295
76	0xbcc759c3	-0.024334794
77	0xbd32bb3b	-0.04363559
78	0xbd989aef	-0.07451426
79	0xbcd06181	-0.025437118
80	0xbd9f93b9	-0.07791848
81	0xbcacfbc2	-0.021116141
82	0x3d769118	0.060196966
83	0xbd9116f7	-0.07084458
84	0x3c206dcc	0.009791803
85	0x3da181a6	0.078860566
86	0xbe005e69	-0.12536015
87	0xbd040367	-0.032229807
88	0x3da1abe3	0.07894113
89	0xbde960dd	-0.11395428
90	0x3ce814d0	0.028330237
91	0xbd198bf0	-0.03748697
92	0xbd2ab6f1	-0.041678373
93	0x3cdee7e9	0.027210193
94	0x3dc74e19	0.09731693
95	0xbddfe9d7	-0.10933273
96	0xbdd79186	-0.10525803
97	0xbcb1b792	-0.021693978
98	0x3cfd2c90	0.030905038
99	0x3c333288	0.010937341
100	0xbd00eed2	-0.031477757
101	0xbd14e7d5	-0.036353905
102	0x3d985350	0.074377656
103	0xbe0ce3a9	-0.1375872
104	0x3dcddc23	0.10051753
105	0x3d9b789a	0.07591362
106	0xbd1fd2f5	-0.039019544
107	0x3c4395d6	0.011937579
108	0x3d29aecf	0.041426476
109	0xbc6cb10a	-0.014446506
110	0xbd3863fe	-0.045017235
111	0x3d8b50f4	0.0680255
112	0xbd9b4a6d	-0.07582555
113	0x3ddbc582	0.10731031
114	0x3d437253	0.04771645
115	0x3d9338c0	0.071885586
116	0x3d987698	0.07444495
117	0x3d01e544	0.031712785
118	0xbd016976	-0.031594716
119	0x3c9139fc	0.017727844
120	0x3d2e41a3	0.042543065
121	0xbe0ae232	-0.13562849
122	0x3d62b999	0.05535278
123	0xbd6f0583	-0.058354866
124	0xbd246de9	-0.04014388
125	0xbe0fbe06	-0.14037332
126	0xbd3ae8af	-0.04563206
127	0x3aba3036	0.0014205042
128	0x3de82994	0.113360554
129	0xbde3bb49	-0.11119706
130	0x3d27c7b5	0.04096194
131	0xbcd18301	-0.025575163
132	0xbb4cce32	-0.0031250832
133	0x3c31b2a8	0.010845818
134	0x3ddd052d	0.10792003
135	0x3cbdc8e8	0.023167089
136	0xbddf5d91	-0.10906518
137	0xbda2d791	-0.07951272
138	0x3d88849d	0.06665919
139	0x3cbc3058	0.02297227
140	0xbd8e73b3	-0.069556616
141	0x3ddc9df8	0.10772318
142	0xbbc8d540	-0.006128937
143	0xbd7ef371	-0.062243883
144	0x3d9aff38	0.0756821
145	0xbdd3029d	-0.10303233
146	0x3dd40093	0.10351672
147	0x3d14155e	0.03615319
148	0xbd3e652a	-0.046483196
149	0x3dc1bf7a	0.094603494
150	0xbb6233c0	-0.0034515709
151	0x3de74007	0.11291509
152	0x3c738db8	0.014865331
153	0xbd84fb09	-0.06493194
154	0x3c0adea2	0.008475931
155	0xbe0781b6	-0.13233075
156	0xbd66b174	-0.056321576
157	0xbdb3d598	-0.08780974
158	0x3dab8cfc	0.083765
159	0xbad11adc	-0.0015953439
160	0xbd1fb2ad	-0.038988758
161	0xbd90a133	-0.07061996
162	0x3b113c80	0.0022161305
163	0x3c3577fa	0.011075968
164	0x3c1f7dc5	0.009734576
165	0xbc161537	-0.009160331
166	0x3dcad434	0.09903756
167	0xbe017abb	-0.12644474
168	0xbdbd4999	-0.09242553
169	0x3db63494	0.08896747
170	0xbd12f92b	-0.035882156
171	0x3db44cb2	0.08803691
172	0xbdd3ffe1	-0.103515394
173	0x3d8af325	0.067846574
174	0x3d4f2e0c	0.050581023
175	0xbdd39216	-0.10330598
176	0xbd85220f	-0.06500637
177	0x3c82ca86	0.015965711
178	0xb96ac9d9	-0.00022391173
179	0xbd96c810	-0.07362378
180	0xbcb67ae7	-0.022275401
181	0xbded7316	-0.115942165
182	0xbd90a8cc	-0.070634454
183	0x3bb53f09	0.005531196
184	0xbdbbe598	-0.09174651
185	0x3ccc689f	0.024952231
186	0xba61d7f1	-0.00086152466
187	0x3cc7c374	0.024385192
188	0x3d3fcf83	0.046828758
189	0xbde09640	-0.10966158
190	0x3da349f1	0.079730876
191	0x3dbce03d	0.092224576
192	0xbc2587cb	-0.010103176
193	0xbe06f001	-0.13177492
194	0xbc7d294c	-0.0154517405
195	0x3dcaf996	0.09910886
196	0xbd26cfbe	-0.040725462
197	0xbe41b870	-0.18918014
198	0xbdcbb451	-0.09946502
199	0xba0e0800	-0.0005418062
200	0x3c83df5a	0.016097713
201	0xbcc8cfbf	-0.024513124
202	0x3c911337	0.017709358
203	0xbbe2943b	-0.006914643
204	0x3de1fcd1	0.11034549
205	0xbdeb99d6	-0.11503951
206	0xbdade56b	-0.08491024
207	0xbe03fb6b	-0.12888877
208	0x3d33c1c7	0.043885972
209	0x3e0de25a	0.13855878
210	0x3e3d80af	0.1850612
211	0x3d108a4f	0.03528815
212	0x3dccdc03	0.100029014
213	0xbc86371e	-0.016383704
214	0xbc362fae	-0.011119766
215	0xbd15c1d6	-0.03656181
216	0x3c4a3d8c	0.0123437755
217	0xbd6dbc4e	-0.05804091
218	0x3c28c7c2	0.010301532
219	0x3d3291fe	0.04359626
220	0x3e2ec81a	0.1706852
221	0x3dcd6689	0.10029323
222	0x3e3522d7	0.17689072
223	0xbd50bc84	-0.050961033
224	0x3e4dfba6	0.20115528
225	0x3e156dc0	0.14592648
226	0xbda52758	-0.08064145
227	0x3e744901	0.23855974
228	0xbd8fef8c	-0.07028112
229	0xbddbff47	-0.1074205
230	0xbe03c48b	-0.12867944
231	0xbe2f40ab	-0.17114513
232	0x3e713397	0.23554836
233	0xbdc27f41	-0.09496928
234	0x3c401f5a	0.011726225
235	0x3e3cf5e2	0.18453172
236	0x3e3bb2fd	0.18329997
237	0xbdff54e5	-0.12467364
238	0x3e232935	0.15933688
239	0xbe384e31	-0.17998578
240	0x3e4c3a0a	0.19944015
241	0xbc5c1c1f	-0.013434439
242	0x3e3d6c09	0.18498243
243	0x3e138b92	0.1440871
244	0x3c662cf8	0.014048807
245	0x3dfbf083	0.12301733
246	0xbc97b984	-0.018521078
247	0x3e1ee31d	0.15516324
248	0xbd2d4584	-0.042302623
249	0x3de1dc79	0.1102838
250	0x3dce63aa	0.10077603
251	0x3bc44ada	0.0059903683
252	0x3e1b14b0	0.1514461
253	0x3e16db5f	0.14732121
254	0xbdb663e4	-0.089057714
255	0x3dcc51f3	0.09976568

fc.0.bias f4 [32]
0	0x3e2adbcf	0.16685413
1	0xbe0e8cf7	-0.13920961
2	0xbd385c78	-0.04501006
3	0x3d1151ce	0.035478406
4	0x3d245efb	0.040129643
5	0x3c4534be	0.0120365005
6	0xbd8fa63a	-0.07014127
7	0x3dcfe632	0.10151328
8	0x3e279e65	0.16369016
9	0xbd2511d4	-0.040300205
10	0xbd07c804	-0.033149734
11	0xbcb2949a	-0.021799374
12	0x3d363a3e	0.044489138
13	0x3d92f4ea	0.0717562
14	0xbcd2980e	-0.025707271
15	0xbdcbe1da	-0.09955187
16	0x3c05daa9	0.008169808
17	0xbc8cffd0	-0.017211825
18	0x3e1c0bf9	0.15238942
19	0x3e487e4d	0.1957943
20	0xbdb30fd8	-0.08743256
21	0xbd47dea4	-0.04879631
22	0x3cfb7628	0.03069599
23	0x3e33dc0c	0.1756441
24	0xbe093baa	-0.13401666
25	0x3e2504a1	0.16115047
26	0x3dbc1a4e	0.09184705
27	0x3dd3e430	0.10346258
28	0xbd93331b	-0.07187482
29	0xbcfbaedf	-0.030723033
30	0xbda30afa	-0.07961078
31	0xbcd0bc9e	-0.025480565

fc.2.weight f4 [3, 32]
0	0x3e64ce9b	0.22344439
1	0xbe14ba14	-0.14524108
2	0x3e198169	0.14990772
3	0x3de3a2c5	0.1111503
4	0x3d04f431	0.03245944
5	0xbe6f6b91	-0.23380877
6	0xbd48bc7a	-0.04900787
7	0x3e92034e	0.28518146
8	0xbdfe592d	-0.12419353
9	0x3e1b8fb8	0.15191543
10	0xbd5832a9	-0.05278269
11	0xbe3055d2	-0.17220238
12	0x3e8df68c	0.27727163
13	0xbd3e8368	-0.046512038
14	0xb9931598	-0.00028054113
15	0xbe07d8ef	-0.13266347
16	0xbe5de595	-0.2166961
17	0xbd6a1a7b	-0.05715416
18	0x3e5dddab	0.21666591
19	0x3e2c3a29	0.16819061
20	0x3d2bd2ed	0.0419492
21	0x3d5de7c9	0.054176126
22	0x3e74c7fb	0.23904411
23	0x3e6043b7	0.21900831
24	0x3dd7c078	0.105347574
25	0x3db4e212	0.08832182
26	0xbdf1b682	-0.11802389
27	0x3e81789f	0.2528734
28	0x3d2bf22a	0.041978993
29	0xbe51ad7b	-0.20476334
30	0xbe16fd72	-0.14745119
31	0xbe69dbe3	-0.22837786
32	0x3e800ab3	0.25008163
33	0x3de0f81e	0.109848246
34	0xbcea17c8	-0.028575793
35	0xbe893c7e	-0.26803964
36	0xbd825515	-0.06363884
37	0xbcde2347	-0.02711643
38	0x3d88ae51	0.06673873
39	0xbe2f97e9	-0.17147793
40	0x3e47fa43	0.19529061
41	0x3db81a58	0.089894
42	0x3e1e6c79	0.15471067
43	0x3e17f688	0.14840138
44	0xbe14e22b	-0.14539401
45	0xbe1b6d25	-0.15178354
46	0x3e255e64	0.16149288
47	0x3e80a355	0.25124612
48	0x3df1094d	0.11769352
49	0xbd1ccbb6	-0.03828021
50	0xbe71caed	-0.23612566
51	0xbdf825be	-0.12116574
52	0x3d8dbe99	0.06921119
53	0x3c7a3aec	0.015272837
54	0xbde36af1	-0.11104382
55	0x3d8d089f	0.0688641
56	0x3e22c000	0.15893555
57	0x3e145f77	0.14489542
58	0xbe8b95ea	-0.27262813
59	0x3e123c9c	0.14280933
60	0x3dc5252b	0.0962623
61	0xbe0c39b5	-0.13693888
62	0x3d9b374d	0.07578907
63	0x3dce0086	0.100586936
64	0xbe102f69	-0.14080586
65	0xbe2054c9	-0.15657343
66	0xbd5f3283	-0.05449153
67	0x3e25b106	0.1618081
68	0x3e748754	0.23879749
69	0x3e109369	0.14118733
70	0xbdad213b	-0.08453604
71	0xbe66170b	-0.22469728
72	0xbe7a9676	-0.24471459
73	0x3dfde93e	0.12398003
74	0xbd970ec1	-0.07375861
75	0xbdfabce7	-0.122430615
76	0xbe512e25	-0.20427759
77	0x3e14b895	0.14523537
78	0x3d0e6a70	0.034769475
79	0x3cfca680	0.030841112
80	0xbe081030	-0.13287425
81	0xbcea38d8	-0.028591558
82	0xbe470bf3	-0.19438152
83	0xbe4a12d9	-0.19733752
84	0xbda799b6	-0.08183615
85	0x3dffcd0c	0.124902815
86	0x3c375ac7	0.011191077
87	0xbe5db445	-0.21650799
88	0xbd22eeb4	-0.039778426
89	0xbe899a74	-0.2687565
90	0xbd1a19fe	-0.037622444
91	0xbe6bf2a8	-0.23041785
92	0x3cd30bf0	0.025762528
93	0x3b8f8ed3	0.0043810396
94	0xbe05d1c0	-0.13068295
95	0x3dd6b02b	0.1048282

fc.2.bias f4 [3]
0	0x3d546e13	0.051862787
1	0x3dc0ad13	0.09408011
2	0xbd5270ea	-0.051377214
