outputs/robustness/smoke/20251116_150425/model.pth (torch, 37861 bytes, 10 tensors)

fc1.weight f4 [32, 3]
0	0x3a852451	0.0010157918
1	0x3ea1c18b	0.31592974
2	0xbef5137d	-0.4786643
3	0xbedf8f73	-0.4366413
4	0xbe6a6330	-0.228894
5	0x3e19d391	0.15022112
6	0xbc8e3516	-0.017359298
7	0x3ef109d3	0.47077808
8	0xbd81d889	-0.06340129
9	0x3e23c5ec	0.1599347
10	0xbe3f6ce1	-0.18693878
11	0xbe020385	-0.12696655
12	0xbf098b5e	-0.5372828
13	0xbec364cc	-0.3816284
14	0xbe73cede	-0.23809382
15	0x3ce151cc	0.027504824
16	0x3e74a90d	0.23892613
17	0x3eaae4cf	0.33377692
18	0xbece4ff1	-0.40295365
19	0xbe748e08	-0.23882306
20	0x3e63e917	0.22256885
21	0x3ef1d598	0.47233272
22	0xbddb481d	-0.10707114
23	0x3ee40c22	0.44540507
24	0xbdd95ae8	-0.10613042
25	0x3d53b98c	0.051690623
26	0x3f042401	0.5161744
27	0xbf0bbb99	-0.54583126
28	0xbeb73018	-0.3577888
29	0xbe0e003e	-0.1386728
30	0xbe629bad	-0.22129698
31	0x3f022e60	0.5085201
32	0xbec48307	-0.38381216
33	0xbe87cc36	-0.26522988
34	0xbed4b3eb	-0.41543517
35	0xbf0b6f88	-0.5446706
36	0xbeb13c84	-0.34616482
37	0x3efe117c	0.49622715
38	0x3e880366	0.26565093
39	0x3e9616ed	0.29314366
40	0x3d029960	0.03188455
41	0xbe903c95	-0.2817122
42	0x3dae7860	0.085190535
43	0xbf0d3f04	-0.5517428
44	0xbed64bb6	-0.41854638
45	0xbe9d3cbb	-0.30710396
46	0x3ec12361	0.37722304
47	0x3ea83667	0.32854006
48	0xbe891d7b	-0.26780304
49	0xbc1d800b	-0.009613047
50	0x3ec0c399	0.3764923
51	0x3f14e8a6	0.58167493
52	0x3e636337	0.22205816
53	0x3d87f3ae	0.06638275
54	0x3ec13b9d	0.37740794
55	0xbea87b20	-0.32906437
56	0x3de9cca2	0.11415984
57	0xbeeb4964	-0.4595443
58	0xbecffe27	-0.4062359
59	0xbe91dd82	-0.2848931
60	0x3e848297	0.25880882
61	0x3e7899b0	0.24277377
62	0xbeb06b87	-0.34457037
63	0x3e3c6d59	0.18401088
64	0x3e9cbb31	0.30611566
65	0xbdab7327	-0.08371573
66	0x3c83bc96	0.016081136
67	0x3e12ac0a	0.1432344
68	0x3eb4d27c	0.35316837
69	0x3f109ca9	0.56489044
70	0xbee50efb	-0.44737992
71	0xbe5e32fa	-0.21699134
72	0x3e74f8cb	0.23923032
73	0x3eeffce4	0.46872628
74	0x3f00c600	0.50302124
75	0x3f04ce00	0.5187683
76	0x3e005884	0.12533766
77	0xbf039237	-0.5139498
78	0x3d86f554	0.065897614
79	0xbebe1997	-0.37128899
80	0xbf0c3d86	-0.5478138
81	0x3f012495	0.50446445
82	0x3ee6593d	0.44989958
83	0xbf16f00f	-0.5896005
84	0x3ddd5092	0.10806383
85	0xbdc7307a	-0.09726043
86	0xbdc2944d	-0.095009424
87	0xbe80b809	-0.25140408
88	0x3e6f7d87	0.23387729
89	0xbeb52659	-0.3538082
90	0x3e4be2fa	0.19910803
91	0x3e9c5791	0.30535558
92	0x3ecdba30	0.40181112
93	0x3e67a7df	0.22622631
94	0xbf14eddc	-0.58175445
95	0xbec5847e	-0.38577646

fc1.bias f4 [32]
0	0x3e94fd04	0.29099286
1	0x3dfbb36b	0.12290081
2	0xbee1cbb5	-0.4410073
3	0xbea3e991	-0.32014135
4	0x3f0c8bf8	0.54901075
5	0x3ec295a9	0.38004807
6	0xbe7e09e0	-0.24808455
7	0xbe12feb6	-0.14354977
8	0xbf0dda7d	-0.5541151
9	0xbc5e080c	-0.013551723
10	0xbedfb921	-0.4369593
11	0xbee52c59	-0.44760397
12	0xbccbadf1	-0.024863215
13	0x3db373a3	0.0876229
14	0xbe6bd5c8	-0.2303077
15	0x3ea929ba	0.33039647
16	0xbeb4de08	-0.35325646
17	0x3f08c3b9	0.5342365
18	0x3ece48d2	0.40289932
19	0xbef66e71	-0.48131135
20	0xbe11e735	-0.14248355
21	0x3d00c1f9	0.031434987
22	0x3daca6d8	0.084302604
23	0x3e0788ba	0.13235751
24	0x3e603e29	0.21898712
25	0x3d26fe38	0.040769786
26	0xbe8f8180	-0.28028488
27	0x3e846d00	0.2586441
28	0xbf0dc751	-0.5538226
29	0xbeb59456	-0.35464734
30	0xbe0bdfbd	-0.13659568
31	0xbe8d0bf2	-0.27548176

fc2.weight f4 [64, 32]
0	0xbd72df32	-0.059294887
1	0xbe07bb8c	-0.13255137
2	0xbd1a05b0	-0.03760308
3	0x3d02224d	0.031770993
4	0xbdd3ca5e	-0.10341333
5	0xba8dcd6a	-0.0010818664
6	0x3e0e9605	0.13924415
7	0xbccab28d	-0.024743343
8	0x3ba0fd5d	0.0049130158
9	0xbb2cdd70	-0.0026377104
10	0x3d128a2e	0.03577631
11	0x3e001028	0.12506163
12	0x3e2b784a	0.16745105
13	0x3dd442bb	0.1036429
14	0x3e2f67e7	0.1712948
15	0xbc3521d0	-0.011055425
16	0xbe15e7fb	-0.14639275
17	0xbdb73223	-0.0894511
18	0x3def02a2	0.11670424
19	0x3c462207	0.012093074
20	0xbdb3f333	-0.08786621
21	0xbe0ab79d	-0.13546605
22	0xbe296846	-0.16543683
23	0xbe1e2b54	-0.15446216
24	0xbd12de97	-0.03585681
25	0x3db5da41	0.08879519
26	0x3dd0df6b	0.101988636
27	0xbe316359	-0.17323054
28	0x3de1d54e	0.11027013
29	0xbe080f57	-0.13287102
30	0xbd1913d0	-0.03737241
31	0xbd926919	-0.07148952
32	0xbcc198f5	-0.023632506
33	0xbd36adeb	-0.044599455
34	0xbe1505d0	-0.14552999
35	0xbe1047a5	-0.1408983
36	0xbd199106	-0.03749182
37	0x3b31b66c	0.0027116789
38	0xbdb4c2f7	-0.08826249
39	0x3d9ce306	0.07660489
40	0xbe2ce5d2	-0.16884544
41	0xbcaa331e	-0.020776328
42	0x3e2ca1dd	0.16858621
43	0xbd8ca047	-0.06866508
44	0x3e2e58ae	0.17026016
45	0x3d983585	0.07432083
46	0xbe1a8d04	-0.15092856
47	0x3de74ca2	0.112939134
48	0xbcfe259f	-0.031023799
49	0xbd92a109	-0.07159621
50	0x3e15069c	0.14553303
51	0xbe1bd26f	-0.15216993
52	0x3d053f71	0.032531206
53	0xbcc6d5a5	-0.024271796
54	0x3e02b2c5	0.12763508
55	0x3d6ba5ff	0.057531353
56	0x3dc07417	0.093971424
57	0x3d9707ba	0.073745206
58	0xbd13183c	-0.035911784
59	0xbccad340	-0.024758935
60	0xbe152cb7	-0.14567839
61	0x3dc7840c	0.09741983
62	0x3e1a4873	0.150667
63	0x3e059a65	0.13047178
64	0xbdff5fcd	-0.124694444
65	0x3c012cd2	0.007884221
66	0xbdff36a2	-0.12461592
67	0xbdc74beb	-0.09731277
68	0xbdd2f640	-0.10300875
69	0x3d777327	0.060412552
70	0xbdd7be5d	-0.10534356
71	0xbb7cc1ed	-0.0038567737
72	0x3bf3af42	0.007436664
73	0x3de960e3	0.11395433
74	0xbe08d60e	-0.13362905
75	0xbdf88b42	-0.12135936
76	0xbdd238d0	-0.102647424
77	0x3dfd6728	0.12373191
78	0xbd8223e6	-0.06354503
79	0x3e18b011	0.14910914
80	0x3d82ea79	0.06392378
81	0x3cb75fc2	0.022384528
82	0xbaac7b48	-0.0013159299
83	0xbd0f2301	-0.03494549
84	0x3cb5b1d6	0.022179525
85	0xbd2556d6	-0.040366016
86	0xbaa2ce4a	-0.0012421098
87	0x3cb8c643	0.022555476
88	0xbe0d9821	-0.13827564
89	0xbdbdc17f	-0.09265422
90	0x3e122bfb	0.1427459
91	0xbe12e7d8	-0.14346254
92	0xbc4ff913	-0.012693661
93	0x3e331243	0.17487435
94	0x3d82c823	0.06385829
95	0x3ba401b4	0.005005086
96	0xbe25aafd	-0.16178508
97	0x3dc77e0c	0.097408384
98	0xbe0ad370	-0.1355722
99	0xbd4d8a28	-0.050180584
100	0xbd519b44	-0.051173463
101	0xbd02b660	-0.031912208
102	0x3c3a278c	0.011361968
103	0x3e0a0062	0.13476709
104	0x3c9670b0	0.01836428
105	0x3e2b3316	0.16718706
106	0x3dc90a42	0.0981641
107	0xbdddf0b2	-0.108369246
108	0x3d962c5c	0.0733268
109	0xbe07024e	-0.13184473
110	0xbd985c29	-0.07439453
111	0x3d430086	0.04760792
112	0x3d875f13	0.06609931
113	0x3e006652	0.12539032
114	0xbd8736ea	-0.06602271
115	0x3c14d9f9	0.009085172
116	0x3da9a276	0.0828294
117	0xbe365fa3	-0.1780992
118	0x3df98565	0.12183646
119	0xbe244e92	-0.16045597
120	0xbb8659ea	-0.004100074
121	0xbd188ed3	-0.037245583
122	0xbdc1be41	-0.09460116
123	0x3c80cecd	0.01572361
124	0x3e15b033	0.14617996
125	0xbd7be075	-0.061493356
126	0xbde5599b	-0.111987315
127	0xbd89fe5a	-0.06737967
128	0xbe2f5357	-0.17121635
129	0x3db48bc4	0.08815721
130	0xbd9ea1cc	-0.07745704
131	0xbdd596c5	-0.10429148
132	0xbdcddc77	-0.10051816
133	0x3dcdbfa9	0.10046322
134	0x3dd2c4d0	0.10291445
135	0x3e09f1c6	0.13471135
136	0x3d55c14e	0.052186303
137	0xbd4d1b36	-0.05007478
138	0xbd392a11	-0.045206133
139	0x3d55ea04	0.052225128
140	0x3e18498d	0.14871807
141	0x3d5978ca	0.05309371
142	0xbd9cf441	-0.07663775
143	0xbda86b8f	-0.0822364
144	0xbe371b51	-0.17881514
145	0x3d2b4a2f	0.041818794
146	0xbde35f2a	-0.111021355
147	0xbe1f8857	-0.15579353
148	0x3e29e47e	0.16591069
149	0xbdd801cb	-0.10547217
150	0xbcafd428	-0.021463469
151	0x3d22ca35	0.03974362
152	0x3c27c7a9	0.010240474
153	0xbde4377f	-0.111433975
154	0xbe0604c9	-0.13087763
155	0x3e18c45f	0.1491866
156	0x3cebd0cc	0.028786086
157	0x3e20bf55	0.15697987
158	0xbd564194	-0.052308634
159	0x3d73069a	0.059332468
160	0xbce897db	-0.028392723
161	0x3ac2176c	0.0014808006
162	0xbdc12d5c	-0.0943248
163	0x3d74e235	0.05978604
164	0x3d837127	0.064180665
165	0x3b595cfe	0.0033167
166	0xbd1ab0f9	-0.03776643
167	0xbdd42a97	-0.10359686
168	0x3dfa5daf	0.122249
169	0xbdfcf408	-0.12351233
170	0x3db0fef6	0.0864238
171	0xbd5e9ee9	-0.054350767
172	0xbd98cd64	-0.0746105
173	0x3d2c4008	0.042053252
174	0xbdb9c5de	-0.09070943
175	0x3d4b4a4f	0.049631413
176	0x3d0e31e7	0.03471556
177	0xbdfdbfd9	-0.12390108
178	0x3d108d1c	0.035290822
179	0x3d9d4ee2	0.07681061
180	0x3da8290d	0.08210955
181	0xbc4df59e	-0.012570767
182	0xbe120b30	-0.1426208
183	0xbc759128	-0.014988221
184	0x3d89c6a1	0.067273386
185	0xbd5c3dfb	-0.053770047
186	0x3d8fb72b	0.070173584
187	0x3e038fe5	0.1284786
188	0xbdbd0a00	-0.09230423
189	0x3c75d5ad	0.015004558
190	0x3d9ed88d	0.077561475
191	0x3b2eb0a7	0.0026655586
192	0x3c286663	0.010278317
193	0x3c344720	0.011003286
194	0xbe1b738a	-0.15180793
195	0x3b478657	0.0030445063
196	0x3ded14bd	0.11576221
197	0x3e23aee1	0.1598468
198	0x3db7ec8a	0.08980663
199	0x3c4f0b1a	0.012636924
200	0x3d91a869	0.071122
201	0xbdc854f6	-0.0978183
202	0xbe233964	-0.15939862
203	0xbe275086	-0.16339311
204	0x3e2afeae	0.16698715
205	0x3df43f88	0.1192618
206	0xbe05e2d9	-0.13074817
207	0x3d85d86f	0.06535422
208	0x3dfa3750	0.12217581
209	0x3e36db6b	0.17857139
210	0x3e1e0b49	0.15433992
211	0x3dfcec7b	0.123497926
212	0xbd47c265	-0.048769373
213	0xbd8c0383	-0.06836607
214	0x3e156fca	0.14593425
215	0x3dbd7663	0.09251096
216	0xbdde2405	-0.10846714
217	0x3e260be9	0.16215481
218	0x3d9eddef	0.07757174
219	0x3dbedf82	0.093199745
220	0xbde2ead2	-0.11079945
221	0x3d1ca99c	0.03824769
222	0xbd88fd33	-0.06688919
223	0x3e03bf53	0.12865953
224	0xbd0b5ef0	-0.034026086
225	0x3d9afa1b	0.07567235
226	0x3cc5351d	0.024073178
227	0x3da69eed	0.081357814
228	0xbd549790	-0.051902354
229	0x3da02e22	0.07821299
230	0xbdf146b6	-0.11781065
231	0x3d0174e9	0.031605635
232	0xbdf4f3d2	-0.119605675
233	0xbe2ac78e	-0.16677687
234	0xbe181cc0	-0.14854717
235	0x3e181505	0.14851768
236	0x3db2260f	0.08698665
237	0x3e232b73	0.15934543
238	0x3e19a20a	0.15003219
239	0xbe2a8483	-0.16652112
240	0xbe001a2a	-0.12509981
241	0xbd157342	-0.03648687
242	0xbde3d2fb	-0.11124226
243	0x3e05ab96	0.13053736
244	0xbe106be0	-0.14103651
245	0xbdc00a46	-0.093769595
246	0xbe37c981	-0.17947961
247	0xbdc41a41	-0.0957532
248	0x3e0c8d0e	0.13725683
249	0x3e0cb5a0	0.1374116
250	0x3e0aff57	0.13573967
251	0x3e03fc21	0.12889148
252	0x3e20f5bf	0.15718745
253	0xbd20c528	-0.039250523
254	0x3d8e341e	0.06943534
255	0x3e29721b	0.16547434

fc2.bias f4 [64]
0	0x3de6dd33	0.11272659
1	0xbd1186f3	-0.03552909
2	0xbd96cdd8	-0.0736348
3	0xbd02d0b2	-0.03193731
4	0x3d61ef37	0.055159774
5	0xbc59b6e4	-0.013288233
6	0x3ddd8210	0.10815823
7	0xbe0e1519	-0.13875236
8	0xbdb5f3e3	-0.08884408
9	0x3e14feb1	0.14550282
10	0x3caadcba	0.020857204
11	0x3cf83fba	0.030303825
12	0x3d82e230	0.06390798
13	0xbd39cb19	-0.045359705
14	0xbd8acb6d	-0.06777082
15	0x3d2a6372	0.041598745
16	0xbd1287be	-0.035773985
17	0xbdae163a	-0.08500333
18	0x3cd5d410	0.026102096
19	0x3d3655cf	0.044515427
20	0xbcbddcc4	-0.023176558
21	0xbdeecbd0	-0.11659968
22	0xbcfae8d7	-0.030628605
23	0xbdcbf539	-0.09958882
24	0x3db2c186	0.08728318
25	0xbdf48c55	-0.11940829
26	0x3e0eb713	0.13937025
27	0x3d8502fd	0.064947106
28	0xbe273ff8	-0.16332996
29	0x3e10f534	0.14156038
30	0xbe33043e	-0.17482087
31	0x3b8a300c	0.0042171534
32	0xbde66fa1	-0.1125176
33	0xbe1a3b52	-0.15061691
34	0x3c811d6b	0.015761098
35	0xbd9bdfd3	-0.076110505
36	0x3e050caf	0.1299312
37	0xbe0e4d13	-0.13896589
38	0x3e0b3390	0.13593888
39	0x3dcd5d07	0.10027509
40	0x3e1651f1	0.14679696
41	0xbd54087a	-0.051765896
42	0xbdcf4259	-0.10120077
43	0xbde41192	-0.11136164
44	0x3e12f3c4	0.14350802
45	0xbdadb375	-0.08481494
46	0xbc67fe94	-0.014159817
47	0xbcb2c567	-0.021822644
48	0x3d3270f8	0.043564767
49	0xbe129e18	-0.1431812
50	0x3e116880	0.1420002
51	0xbdf697b9	-0.120406576
52	0x3e296ec1	0.16546156
53	0xbda7d40b	-0.08194741
54	0xbd9621ea	-0.07330687
55	0xbcd57e7a	-0.026061285
56	0x3d35250a	0.044224776
57	0xbd32b029	-0.04362503
58	0xbe404f89	-0.1878034
59	0x3df5034c	0.119635195
60	0x3e4030d9	0.18768634
61	0x3db5fce1	0.088861234
62	0x3e3271ca	0.1742622
63	0x3d7271dd	0.05919062

fc3.weight f4 [64, 64]
0	0xbc207b10	-0.009794965
1	0xbdced5e4	-0.1009939
2	0xbddfbeca	-0.10925062
3	0xbdb04156	-0.08606212
4	0xbcd5d9e7	-0.02610488
5	0x3daf40c4	0.08557275
6	0xbd42c193	-0.047547888
7	0x3c00fcf7	0.0078728115
8	0x3c1a5111	0.009418742
9	0xbdb69a1f	-0.08916115
10	0xbc83dbd1	-0.016096028
11	0x3ddbd1af	0.10733353
12	0x3dcc9bf2	0.09990682
13	0x3dd1c8f1	0.10243405
14	0xbb36435e	-0.002781115
15	0x3b114900	0.0022168756
16	0x3d9a34be	0.07529591
17	0xbcf4669c	-0.029834084
18	0xbd833f8c	-0.06408605
19	0x3dea4b96	0.11440198
20	0x3be9d8a0	0.0071364194
21	0xbda79b84	-0.08183959
22	0x3dd7b4fa	0.105325654
23	0x3d046ded	0.032331396
24	0x3d5b06d9	0.053473327
25	0xbdde56ae	-0.108563766
26	0x3c1fa33c	0.009743508
27	0x3daf456d	0.08558164
28	0xbc270298	-0.0101934895
29	0xbdab5b77	-0.08367055
30	0x3dccd0c0	0.100007534
31	0x3d6e2458	0.05814013
32	0x3d11d20c	0.035600707
33	0x3cf22c40	0.029562116
34	0x3b34cf80	0.00275895
35	0x3dadcec5	0.08486704
36	0xbd255340	-0.040362597
37	0xbd96b16c	-0.07358059
38	0x3d5d37d8	0.054008335
39	0x3d1251c9	0.035722528
40	0x3d0da815	0.034584124
41	0xbc637940	-0.013883889
42	0xbbd172f6	-0.0063918782
43	0x3b78142a	0.0037853816
44	0x3d07016c	0.03296034
45	0xbdc4719e	-0.09591983
46	0xbdd824f1	-0.10553921
47	0x3d077a4d	0.03307562
48	0xbd7eb784	-0.062186733
49	0xbc2c4890	-0.010515347
50	0x3caf7681	0.021418812
51	0x3c8fa028	0.017532423
52	0x3daf3583	0.085551284
53	0x3c863ac0	0.016385436
54	0x3cbdb6b6	0.023158412
55	0xbc94c454	-0.018160023
56	0x3cc89ad8	0.024487898
57	0x3d3bbcec	0.045834467
58	0x3dc238e3	0.094835065
59	0xbde515dd	-0.11185811
60	0xbd85cf4f	-0.065336816
61	0xbe00871f	-0.12551545
62	0xbd8296dc	-0.063764304
63	0x3d9c0d68	0.076197445
64	0xbdf28f7c	-0.11843774
65	0xbdef642c	-0.11689028
66	0x3d943ada	0.072377875
67	0xbda8b99e	-0.08238529
68	0x3db11b01	0.08647729
69	0x3d1cd426	0.038288258
70	0x3cd613ce	0.02613249
71	0x3dc15f8d	0.09442053
72	0xbe02230d	-0.12708683
73	0x3dbb77b2	0.091536894
74	0x3d3d7f50	0.046263993
75	0xbda6053c	-0.08106467
76	0x3cd07f6b	0.025451383
77	0xbd22afdd	-0.039718498
78	0xbd618131	-0.055054847
79	0xbc360327	-0.01110915
80	0xbd82b106	-0.06381421
81	0x3dd5dc05	0.10442356
82	0x3dd257ea	0.102706745
83	0xbc9578ae	-0.018246021
84	0xbded0274	-0.115727335
85	0xbc6ed5b9	-0.014577323
86	0x3b41f84c	0.002959746
87	0x3da0cf0a	0.078519896
88	0x3bab3343	0.0052246167
89	0x3d010698	0.03150043
90	0x3cbbb30d	0.022912527
91	0xbd9b4047	-0.07580619
92	0xbd9ecb1c	-0.07753584
93	0xbde58388	-0.11206728
94	0xba80a900	-0.0009815991
95	0x3d1e94dc	0.038716182
96	0xbc119f60	-0.008888096
97	0x3e014de0	0.12627363
98	0xbcb6fc65	-0.022337148
99	0xbdbb4261	-0.0914352
100	0x3cdf4c66	0.02725811
101	0xbd102f54	-0.035201386
102	0xbcbfa661	-0.023394765
103	0x3df88b9f	0.121360056
104	0x3a112e71	0.00055382313
105	0x3ddfa06e	0.109192714
106	0x3bf0d0b3	0.0073490976
107	0xbd3e79a4	-0.046502724
108	0x3dbc7145	0.09201292
109	0xbda6ac21	-0.081383
110	0xbba6a071	-0.005085044
111	0x3d014a0a	0.03156475
112	0x3d70d497	0.05879649
113	0xbdff1864	-0.12455824
114	0x3c315844	0.010824267
115	0xbd1af6ef	-0.03783315
116	0x3d9bde9a	0.07610817
117	0x3d2c4260	0.042055488
118	0x3d39382c	0.045219585
119	0x3d90d6da	0.0707223
120	0xbd069eb2	-0.032866187
121	0xbc0336e0	-0.008008689
122	0x3dc34779	0.09535117
123	0xbdd975ea	-0.106181934
124	0xbdabfb5e	-0.08397554
125	0x3b8c1ca7	0.0042758766
126	0xbd4e024a	-0.05029515
127	0x3bea9500	0.0071588755
128	0x3dfd25ef	0.12360751
129	0xbc0c57aa	-0.008565823
130	0xbdda4642	-0.10657932
131	0xbd68be64	-0.056822196
132	0x3deb1a16	0.11479585
133	0xbce0f640	-0.027461171
134	0xbd41b0a1	-0.047287587
135	0x3d8e8f1c	0.0696089
136	0x3c7d88e0	0.015474528
137	0xbde1b5c0	-0.11020994
138	0x3de9bc03	0.114128135
139	0x3da95250	0.08267653
140	0x3dfb5f6a	0.12274058
141	0x3d8a1e75	0.067440905
142	0xbcfa5090	-0.030555993
143	0xbcffdf41	-0.031234385
144	0x3d782064	0.060577765
145	0xbcc681a0	-0.024231732
146	0x3cc8c240	0.024506688
147	0xbdf80f9c	-0.12112352
148	0xbd7d17d0	-0.061790287
149	0x3d3e2e60	0.046430945
150	0x3bc326fd	0.0059555755
151	0xbd7624f4	-0.060093835
152	0xbde02008	-0.109436095
153	0x3da2b40e	0.07944499
154	0xbccde260	-0.025132358
155	0xbe050dd2	-0.12993553
156	0x3df6fc1c	0.12059805
157	0x3d6a8759	0.057257984
158	0xbd991fa4	-0.07476738
159	0xbdbad63a	-0.09122892
160	0x3df76046	0.120789096
161	0x3c5b6df9	0.013392919
162	0xbd8f6bcb	-0.07002982
163	0x3daa9a91	0.083302625
164	0xbc88478d	-0.01663568
165	0x3c0c4b50	0.008562878
166	0xbd80523a	-0.062656835
167	0xbddcc7b4	-0.10780278
168	0xbd9bcf8c	-0.07607946
169	0xbc60e060	-0.01372537
170	0xbda201c7	-0.07910495
171	0x3dfc50dc	0.1232011
172	0xbbc1da71	-0.005915933
173	0xbd440288	-0.047853976
174	0x3d7225e0	0.05911815
175	0xbdd41fef	-0.10357653
176	0xbd611a91	-0.054956976
177	0x3d404ec8	0.04695013
178	0xbdc7e4e4	-0.09760454
179	0x3d8bb567	0.06821709
180	0x3c424eb0	0.011859581
181	0xbdd57464	-0.104225904
182	0xbdfe100a	-0.12405403
183	0x3d43bd3c	0.04778789
184	0x3d5dbcb3	0.054135036
185	0xbcfa6930	-0.030567735
186	0xbdd6f4c9	-0.10495908
187	0xbda78924	-0.081804544
188	0x3ca511f2	0.020150159
189	0x3b950440	0.004547626
190	0x3d1fec6d	0.039043833
191	0x3cb51058	0.02210252
192	0xbbd6b280	-0.0065520406
193	0x3d871916	0.06596582
194	0x3df852d0	0.1212517
195	0x3dd53348	0.10410172
196	0x3de89efc	0.11358449
197	0xbd2ccd3c	-0.042187914
198	0xbd2ec0d0	-0.04266435
199	0xbc6282f0	-0.013825163
200	0x3d17537c	0.03694485
201	0x3d4f3f28	0.05059734
202	0xbc368d00	-0.011142015
203	0xbda55b6c	-0.08074078
204	0xbdc126ea	-0.094312504
205	0x3df674ba	0.120339826
206	0xbd09a778	-0.033606976
207	0xbc8a69b0	-0.016896099
208	0xbd9ce468	-0.076607525
209	0xbd7dd43c	-0.06196998
210	0x3ce0e938	0.027454957
211	0x3d57a5c0	0.052648306
212	0xbd4a67d8	-0.04941544
213	0xbd3c73f8	-0.046009034
214	0x3dcacaf2	0.0990199
215	0xbd83d822	-0.064377084
216	0xbdbeff6a	-0.0932606
217	0xbc9fc290	-0.019501954
218	0x3df39866	0.11894302
219	0x3cdecfa0	0.027198613
220	0x3c8d7d48	0.017271653
221	0xbc7f0060	-0.015564054
222	0x3d9ff8b6	0.0781111
223	0xbd7dc5f4	-0.06195636
224	0x3dad9220	0.08475137
225	0x3cf1e9f8	0.02953051
226	0x3c63b400	0.013897896
227	0x3c8cf868	0.017208293
228	0xbd9de1b4	-0.07709065
229	0x3dbe2208	0.09283835
230	0x3d867406	0.065650985
231	0xbdc838da	-0.097764686
232	0xbdee5b5e	-0.11638521
233	0xbd03cdc0	-0.03217864
234	0x3daa12fc	0.08304402
235	0xbd7c12e4	-0.061541453
236	0x3ded4530	0.11585462
237	0xbd80b5ea	-0.06284697
238	0xbde73ed4	-0.112912804
239	0x3d6138f0	0.05498594
240	0xbd9ab64a	-0.075543
241	0xbca16bf0	-0.019704789
242	0xbd1fb1e0	-0.038987994
243	0xbc22bb80	-0.009932399
244	0xbddf124e	-0.10892163
245	0xbdeacdb4	-0.11465016
246	0x3d5c18d0	0.0537346
247	0xbc6811f0	-0.014164433
248	0xbd9a6d50	-0.07540381
249	0xbb50b040	-0.0031843334
250	0xbde9a8d6	-0.11409156
251	0x3d07e810	0.033180296
252	0x3d73267c	0.059362873
253	0x3df845e6	0.12122707
254	0xbdd08e6a	-0.10183413
255	0xbc7855b0	-0.015157148

fc3.bias f4 [64]
0	0xbcb6305a	-0.022239853
1	0xbd8a3e4b	-0.06750163
2	0x3e01a395	0.12660058
3	0xbde013d2	-0.109412804
4	0xbdb09756	-0.08622615
5	0x3d96535a	0.07340117
6	0x3dc4f48b	0.09616955
7	0x3ce3c5c7	0.027804269
8	0xbac4b5c1	-0.001500778
9	0xbca1a5ef	-0.019732444
10	0x3c3a10c4	0.011356536
11	0xbd826656	-0.06367175
12	0x3df40e91	0.11916841
13	0x3dfc5490	0.123208165
14	0xbd5140b9	-0.051087115
15	0x3db406e0	0.08790374
16	0xbd1be8ef	-0.03806394
17	0xbdbab330	-0.091162086
18	0x3cb9c8ea	0.022678811
19	0xbcc3b530	-0.023890108
20	0x3de2d2d0	0.110753655
21	0x3c836c3c	0.016042821
22	0xbcfa89eb	-0.030583343
23	0xbde232a6	-0.11044817
24	0x3db0e3e2	0.08637215
25	0x3da8ba87	0.08238702
26	0x3c64ba44	0.013960425
27	0xbc236678	-0.009973161
28	0xbd2b87dc	-0.041877612
29	0x3ce371d7	0.027764244
30	0x3df4bf38	0.119505346
31	0xbc8e3766	-0.0173604
32	0x3c7ef084	0.015560273
33	0xbdf3e6ba	-0.11909242
34	0x3cfe12ff	0.031014917
35	0xbd5f98d5	-0.05458911
36	0xbcf2c930	-0.02963695
37	0xbd9ff951	-0.07811225
38	0x3de1a6a0	0.11018109
39	0x3db373de	0.08762334
40	0xbd811154	-0.06302133
41	0xbcfb2598	-0.030657575
42	0x3d040b00	0.032237053
43	0x3d33f99f	0.04393923
44	0xbd7bd64b	-0.061483663
45	0x3d4ab4b2	0.04948873
46	0x3c161989	0.0091613615
47	0x3d960c10	0.073265195
48	0xbd8c4d73	-0.0685071
49	0xbdaa30fa	-0.08310123
50	0x3d6dd604	0.05806543
51	0xbb09e4b9	-0.002104087
52	0xbd64ea97	-0.055887785
53	0x3dc3d391	0.095618375
54	0xbc89c051	-0.016815336
55	0xbdaed7ce	-0.08537255
56	0xbc8664dd	-0.016405517
57	0xbd7b4b16	-0.061350904
58	0xbcf9bd85	-0.030485878
59	0xbdd32bae	-0.103110656
60	0x3dc96037	0.09832805
61	0x3dde1e43	0.10845616
62	0xbddb45db	-0.10706683
63	0x3da26754	0.079298645

classifier.0.weight f4 [32, 64]
0	0x3d3fb0d5	0.0467995
1	0xbd444153	-0.04791386
2	0xbcbe6944	-0.023243554
3	0x3cae8dc0	0.021307826
4	0x3cd93dc0	0.026518703
5	0x3defb749	0.11704881
6	0x3e03a208	0.12854779
7	0x3c9f94df	0.019480167
8	0x3e030191	0.12793566
9	0xbd8d682b	-0.06904634
10	0x3c1e9ef4	0.009681452
11	0xbdb9f496	-0.09079854
12	0x3d89af2d	0.06722865
13	0x3d05d668	0.032675177
14	0xbd8646dc	-0.06556484
15	0xbdbc6267	-0.09198456
16	0xbc8bb233	-0.017052745
17	0xbd3f6551	-0.046727482
18	0xbd34abfe	-0.044109337
19	0xbddef61c	-0.108867854
20	0xbd92ad53	-0.07161965
21	0x3dee17ce	0.11625634
22	0xbd589449	-0.05287579
23	0x3d77c690	0.0604921
24	0x3c956dbd	0.018240804
25	0xbc0ee936	-0.008722594
26	0x3d538564	0.051640883
27	0x3dd0cec6	0.10195689
28	0x3d1f89e0	0.038949847
29	0x3ca1b333	0.01973877
30	0x3de60ab9	0.11232514
31	0x3cbfae90	0.023398668
32	0x3d1a7c5b	0.03771625
33	0x3df99ac8	0.12187725
34	0xbda99ac0	-0.08281469
35	0x3dd46789	0.1037131
36	0xbd75f488	-0.060047656
37	0x3b9996e0	0.004687175
38	0xbd9bcbf8	-0.07607263
39	0x3db78e85	0.0896273
40	0xbdb4fbea	-0.08837111
41	0xbd62d4b0	-0.055378616
42	0x3cffb5f2	0.031214688
43	0xbd317d80	-0.043332577
44	0x3cc0e515	0.023546735
45	0x3df5e7fa	0.12007137
46	0xbdcabf8c	-0.09899816
47	0xbd991d80	-0.0747633
48	0xbdbc135e	-0.091833815
49	0x3e070201	0.13184358
50	0x3d1f6bd4	0.038921192
51	0xbda470e0	-0.08029342
52	0xbdc7973a	-0.09745641
53	0x3dcad8df	0.09904646
54	0x3df6dd54	0.12053934
55	0xbd8401a5	-0.06445626
56	0x3d2a8838	0.041633815
57	0xbce6a69f	-0.028155623
58	0x3daf8c6b	0.085717045
59	0xbd7003a9	-0.05859724
60	0x3dbcb590	0.09214318
61	0x3e071e22	0.13195089
62	0x3db6a2b5	0.08917753
63	0xbc8ddd2a	-0.017317373
64	0x3cdf3c2f	0.027250377
65	0x3d6f38f2	0.058403917
66	0xbd73dbe4	-0.059535876
67	0xbd6e86b8	-0.058233947
68	0xbdfa6d24	-0.12227848
69	0x3dcf5320	0.10123277
70	0xbd3fb19e	-0.04680025
71	0x3df25759	0.118330665
72	0xbc502344	-0.0127037205
73	0xbd292e8d	-0.04130416
74	0x3d960fb3	0.07327213
75	0xb8ee5ff8	-0.000113666
76	0xbd9aedc0	-0.075648785
77	0x3cb43ec3	0.022002583
78	0xbd3b2e29	-0.04569832
79	0xbdb32b6f	-0.08748519
80	0xbd918609	-0.07105643
81	0x3d33a6dd	0.043860305
82	0x3c9cb6b4	0.019130088
83	0xbd4f8320	-0.05066216
84	0x3d572dd2	0.052533932
85	0xbd09589b	-0.033531766
86	0xbdb18912	-0.08668722
87	0x3d5761e6	0.052583598
88	0xbd091d1c	-0.033475026
89	0xbcd81d96	-0.026381295
90	0x3dcb18c5	0.09916834
91	0x3dd2952b	0.10282358
92	0xbdfa920c	-0.122348875
93	0x3deb6bc5	0.11495165
94	0x3dfec19c	0.12439272
95	0xbd9da945	-0.07698301
96	0xbdebdd9b	-0.11516877
97	0xbdc7d79a	-0.097579196
98	0xbcd3bb62	-0.025846187
99	0x3bf66246	0.0075190393
100	0x3d0d1bec	0.034450457
101	0x3d279ec6	0.040922903
102	0x3c9fa7df	0.019489227
103	0xbdb501a5	-0.08838204
104	0x3e07a05b	0.13244765
105	0x3ddc864e	0.10767804
106	0x3d93e59c	0.07221529
107	0x3d0712a9	0.03297678
108	0xbd6f5753	-0.05843289
109	0x3c344206	0.011002069
110	0xbd9f0a5a	-0.07765646
111	0x3dfbc25b	0.1229293
112	0xbddea0aa	-0.10870488
113	0x3dea9050	0.11453307
114	0x3e032efa	0.12810889
115	0xbd4f2e37	-0.050581183
116	0xbddfbaef	-0.10924327
117	0x3d4800e4	0.048828974
118	0xbdb57289	-0.088597365
119	0xbddcd8c9	-0.10783536
120	0xbd8374c1	-0.064187534
121	0x3dbad6f3	0.091230296
122	0xbd9e115e	-0.07718156
123	0xbd28f4d9	-0.04124913
124	0xbd2d1dca	-0.042264737
125	0x3dc4f3cc	0.09616813
126	0x3d7cdc9c	0.061733827
127	0x3d8f0801	0.069839485
128	0xbcbf4cd8	-0.023352072
129	0xbd975f30	-0.073912024
130	0x3d3887a0	0.045051217
131	0x3d4e92d0	0.05043298
132	0x3dd3e46a	0.10346301
133	0xbdefe13c	-0.11712882
134	0xbdbbd8a4	-0.0917218
135	0x3da7f542	0.08201076
136	0x3d046fe8	0.032333285
137	0x3da9f51a	0.082987025
138	0xbd01787c	-0.031609043
139	0x3dff438e	0.12464057
140	0x3d481830	0.048851192
141	0xbd462cdc	-0.048382625
142	0xbd775948	-0.06038788
143	0x3d068474	0.03284116
144	0xbb49bd00	-0.0030782819
145	0xbd782524	-0.060582295
146	0xbd8937a0	-0.06700063
147	0x3d2c83d8	0.042117923
148	0x3d7cbc8c	0.06170325
149	0x3df3d044	0.11904958
150	0xbd580f18	-0.05274877
151	0xbd972288	-0.07379633
152	0xbda162fe	-0.078802094
153	0xbdad6ade	-0.08467649
154	0x3dfce156	0.12347667
155	0xbd7a6440	-0.061130762
156	0xbd70d924	-0.05880083
157	0x3dbbd012	0.09170546
158	0x3dcb936e	0.09940229
159	0xbdea4a0e	-0.11439906
160	0xbc61c030	-0.013778731
161	0x3d19da40	0.037561655
162	0x3c9c9a18	0.019116446
163	0xbd918aae	-0.07106529
164	0xbdce4c54	-0.10073152
165	0xbdb8b9a2	-0.09019782
166	0x3d2a8b50	0.041636765
167	0xbd6e5ea0	-0.05819571
168	0xbde8c63e	-0.11365937
169	0x3dfc63f6	0.123237535
170	0x3d6a9ce8	0.057278544
171	0xbd18c0b0	-0.037293136
172	0x3ca366a8	0.019946411
173	0xbd35f370	-0.044421613
174	0xbda8c228	-0.08240157
175	0xbdec85e8	-0.11548978
176	0x3da6e034	0.08148232
177	0xbdec67fc	-0.11543271
178	0xbdc1180c	-0.09428415
179	0x3dd59df4	0.10430518
180	0xbda139d4	-0.07872358
181	0xbd2be748	-0.041968614
182	0x3a175300	0.0005772561
183	0xbdfcce0e	-0.12343989
184	0xbde86fdc	-0.113494605
185	0xbdcfa7bc	-0.10139415
186	0xbc9a5d08	-0.018843189
187	0xbd394cf4	-0.045239404
188	0x3dbe2000	0.09283447
189	0x3da4ad36	0.0804085
190	0x3df91060	0.121613264
191	0xbddd8424	-0.108162194
192	0xbd90545e	-0.07047342
193	0x3da60745	0.08106855
194	0x3cfa592c	0.030560099
195	0xbda6c208	-0.08142477
196	0x3dbfefc0	0.093719006
197	0xbd9c35b5	-0.07627431
198	0x3ddc72d0	0.10764086
199	0xbde38c4d	-0.111107446
200	0x3d5a325e	0.05327069
201	0xbc4464ae	-0.0119868945
202	0xbdf1ab3e	-0.1180024
203	0x3d5737c2	0.05254341
204	0xbd617694	-0.055044726
205	0xbbdcc5ce	-0.0067374473
206	0xbd4c81c8	-0.049928457
207	0xbcfef553	-0.03112284
208	0xbd22b9e5	-0.039728064
209	0x3d65db24	0.056117192
210	0xbc9a37eb	-0.018825492
211	0x3daee8fe	0.085405335
212	0x3d2f7393	0.04283483
213	0xbc194ca2	-0.00935665
214	0x3d24b4c0	0.04021144
215	0xbd5365bb	-0.05161069
216	0xbdd8531d	-0.105627276
217	0xbdbd923f	-0.0925641
218	0xbdc4249c	-0.09577295
219	0xbde21ada	-0.11040278
220	0x3ca3d7b0	0.020000309
221	0xbc9a6e41	-0.018851401
222	0xbdff1de1	-0.12456871
223	0x3d543e64	0.051817313
224	0x3d8a9fd6	0.067687675
225	0x3dd97774	0.10618487
226	0xbb421419	-0.002961403
227	0xbcb5462b	-0.022128185
228	0x3d969226	0.07352094
229	0xbdf4a5ae	-0.119456634
230	0x3c706c94	0.014674325
231	0x3d94d2ae	0.072667465
232	0x3d986bde	0.07442449
233	0x3c715310	0.014729276
234	0xbcaf933d	-0.021432513
235	0x3d203062	0.03910864
236	0x3c7d9fd1	0.015479998
237	0xbbf93363	-0.0076050027
238	0x3db33bcb	0.08751639
239	0x3dc9d835	0.09855691
240	0xbd991c88	-0.07476145
241	0x3dd19ad4	0.10234609
242	0xbd2f8154	-0.042847946
243	0x3c88a10e	0.01667836
244	0x3dd6a05c	0.10479805
245	0xbd851acd	-0.064992525
246	0x3d50a4fb	0.050938588
247	0xbcdc403e	-0.026886102
248	0xbda6bd8f	-0.08141624
249	0xbc2bcf84	-0.010486487
250	0x3dd11c36	0.10210459
251	0x3d75230c	0.059847876
252	0xbd95e8d7	-0.07319801
253	0x3dd733a5	0.10507897
254	0x3c46f358	0.012142979
255	0x3dd9852f	0.10621106

classifier.0.bias f4 [32]
0	0x3d808bd1	0.06276668
1	0x3ddca52b	0.10773691
2	0xbd0739ac	-0.033013985
3	0x3dd5b13f	0.10434198
4	0xbbcc85ea	-0.0062415497
5	0xbdec95be	-0.115519986
6	0xbdee9f76	-0.116515085
7	0xbd6de680	-0.05808115
8	0xba480b00	-0.00076310337
9	0x3dcd9699	0.1003849
10	0xbd5ab354	-0.053393677
11	0xbc9eb468	-0.019373134
12	0x3db50efe	0.0884075
13	0xbd0471a8	-0.032334954
14	0x3d5dd294	0.0541559
15	0xbc3c586b	-0.01149569
16	0xbd4788c0	-0.0487144
17	0xbda5dd96	-0.08098905
18	0x3dfd482b	0.123672806
19	0xbd898018	-0.06713885
20	0x3c52fd20	0.0128777325
21	0x3d2ce850	0.042213738
22	0x3cd0a536	0.025469404
23	0xbc257860	-0.0100995
24	0xbcc25bd5	-0.02372543
25	0xbd4bf428	-0.049793392
26	0x3d343d81	0.044003967
27	0xbd294d04	-0.041333213
28	0x3d3ed4a4	0.04658951
29	0x3d76cea0	0.060255647
30	0x3d31bc3a	0.043392397
31	0xbd70f980	-0.05883169

classifier.2.weight f4 [3, 32]
0	0xbe01b426	-0.12666377
1	0xbd49e953	-0.04929478
2	0x3d6787ca	0.056525983
3	0x3c8000cc	0.01562538
4	0x3e2d2c85	0.16911514
5	0x3df48fe8	0.119415104
6	0xbda96180	-0.0827055
7	0x3e020bd7	0.12699829
8	0xbdce651b	-0.10077878
9	0xbd85368b	-0.06504544
10	0x3e062bd0	0.1310265
11	0xbe050fb7	-0.12994276
12	0xbd55d276	-0.052202664
13	0xbe20092a	-0.15628496
14	0x3da80225	0.08203534
15	0x3df5d882	0.12004186
16	0x3e1f21c2	0.15540221
17	0xbd7c65ea	-0.06162063
18	0xbe03a50c	-0.12855929
19	0x3dbf0bfb	0.09328457
20	0xbdea2294	-0.114323765
21	0xbd7f2a97	-0.062296476
22	0xbe1a0666	-0.15041503
23	0x3e0d3477	0.13789545
24	0xbce30d15	-0.027716199
25	0x3c48e733	0.012262153
26	0x3bd335ef	0.0064456384
27	0x3ca719ab	0.020397982
28	0xbd9e9ded	-0.07744966
29	0x3e2bb33c	0.16767591
30	0xbe2a83d2	-0.16651848
31	0xbcbd7c7f	-0.023130653
32	0xbde430f7	-0.11142152
33	0xbdf1c325	-0.11804799
34	0x3dc2821b	0.09497472
35	0x3e10a41e	0.14125106
36	0x3db2df2f	0.08733975
37	0x3d58deaa	0.052946724
38	0x3df17da9	0.11791546
39	0x3dc216cd	0.09477005
40	0xbd52a64e	-0.05142813
41	0xbdac4d86	-0.08413224
42	0x3d568b4e	0.052378945
43	0x3de33cb9	0.11095566
44	0x3dec64c2	0.115426555
45	0xbc2833b1	-0.01026623
46	0x3e34f5b9	0.17671861
47	0xbe0cc0c6	-0.13745412
48	0x3d96359b	0.07334443
49	0x3e1b099f	0.15140389
50	0x3c886edf	0.01665443
51	0x3ddaaa7e	0.1067705
52	0x3e1f12f7	0.15534578
53	0xbe1577de	-0.14596507
54	0x3ddccc5f	0.10781168
55	0x3da7d3be	0.081946835
56	0x3da4506a	0.0802315
57	0x3da1b346	0.07895522
58	0x3de35aee	0.11101328
59	0x3d536643	0.051611196
60	0x3dc8ebda	0.0981061
61	0xbe299da9	-0.16564049
62	0xbe3ece6a	-0.18633428
63	0x3dc05f6a	0.09393199
64	0x3e3bdde2	0.1834636
65	0xbd553358	-0.05205092
66	0x3e0b2a3b	0.13590328
67	0xbcc19466	-0.023630332
68	0x3dae10c7	0.08499294
69	0xbc6b7b6a	-0.014372686
70	0x3db00fb4	0.08596745
71	0xbd9d32d4	-0.0767571
72	0xbe14d224	-0.14533287
73	0x3dd1ce3a	0.10244413
74	0xbd97f0ac	-0.074189514
75	0x3e070d55	0.1318868
76	0x3cd702fb	0.026246538
77	0xbd7a1697	-0.0610567
78	0x3e2e2fdb	0.17010443
79	0x3e36855b	0.17824309
80	0xbdbbb2d5	-0.09164969
81	0x3da10325	0.07861928
82	0x3d2e60f9	0.04257295
83	0xbdde5b47	-0.108572535
84	0x3cb7e4ea	0.022448022
85	0xbe188684	-0.14895064
86	0x3ca43f3c	0.020049684
87	0xbe1cf74f	-0.15328716
88	0x3e26dc84	0.16295058
89	0x3dcd8f5f	0.100371115
90	0x3e0e1481	0.13875009
91	0x3d20638f	0.039157446
92	0xbd9a22d5	-0.07526175
93	0x3dc63bfe	0.09679411
94	0x3db1ccf5	0.086816706
95	0x3dc6a502	0.096994415

classifier.2.bias f4 [3]
0	0xbce8aa00	-0.028401375
1	0x3e39a91a	0.18130913
2	0xbde8739d	-0.113501765
