outputs/ex1/mlp_robustness_analysis/20251117_233258/model.pth (torch, 37861 bytes, 10 tensors)

fc1.weight f4 [32, 3]
000000 33 4a 97 bd 0e f8 92 bd a2 b7 d4 be 81 4e 17 3e
       -0.07387199 -0.07176219 -0.4154635 0.1477604
000010 13 76 aa be 62 35 8f be 68 0b 99 3e e7 0a 1c 3f
       -0.33293208 -0.27970415 0.29891515 0.60954136
000020 86 7b 57 3e 9b 1e 76 be e3 84 cf 3d 5c a3 cb bd
       0.21043214 -0.24035113 0.10132768 -0.09943268
000030 72 58 a5 3e 61 3a ba 3d 1d a7 c2 3e cf 38 21 3f
       0.3229404 0.09093166 0.38018122 0.6297731
000040 cb ef 41 be 23 45 40 be f9 5c fd 3d 58 ed 39 3d
       -0.1893913 -0.18776374 0.12371249 0.045392364
000050 3a b0 f3 3d b1 f9 e4 be 7d 46 0a bf 28 1f 2c bf
       0.11898847 -0.4472175 -0.54013807 -0.6723504
000060 12 45 15 bf ba b2 13 bf 52 b3 16 bf 15 d6 1c bf
       -0.5830852 -0.5769459 -0.5886737 -0.61264163
000070 c9 1b 1d bf 61 d2 ac 3e b6 b5 dd 3e 27 2c f1 3e
       -0.6137052 0.33754256 0.43302697 0.47103998
000080 6d 41 e2 3e 3b f8 96 3e 71 56 4d 3e 3b f5 01 bf
       0.4419054 0.2948626 0.20052506 -0.50764817
000090 5d fc 1e 3f 57 00 f6 bc b7 20 24 3f e0 7a 82 3e
       0.62103826 -0.030029459 0.6411242 0.2548437
0000a0 b8 16 09 3f 99 e1 1b 3f 6b 52 0d be e9 42 27 be
       0.5355029 0.6089111 -0.13800971 -0.16334118
0000b0 5c 46 d3 3d 88 fc 6c bc 2f 47 0e 3e a0 ef c5 3e
       0.10316154 -0.014464505 0.13894342 0.38659382
0000c0 c6 14 e0 be 66 e9 e8 bd e3 38 24 bf 80 ba 1b 3f
       -0.4376585 -0.11372642 -0.641493 0.6083145
0000d0 07 bd e2 be 5e 8b ae 3d 04 01 ce bd 18 1e 95 3e
       -0.4428484 0.08522676 -0.100587875 0.29124522
0000e0 a9 ec c3 bd 1a 72 d1 3b 2e 60 ee 3e 78 97 24 3f
       -0.09566624 0.006391776 0.46557754 0.6429362
0000f0 cb eb 05 bf d5 c6 1f bf ba ba 46 3d 59 f1 7d 3e
       -0.52312917 -0.6241277 0.04851792 0.24799098
000100 66 cc 62 3e 6a 12 25 3f 11 a8 68 3e d8 89 92 be
       0.22148284 0.6448122 0.22720362 -0.2862079
000110 36 8c 17 bf cd 3c 0b 3f d6 92 21 3f 8d 87 db be
       -0.5919832 0.5438965 0.6311468 -0.42876855
000120 17 1f b6 be 5b a9 84 3e c6 56 18 bf 28 71 12 be
       -0.35570595 0.25910458 -0.59507406 -0.14300978
000130 39 27 2e bf cb 52 83 3e 32 44 62 be 72 77 cc be
       -0.680286 0.25649104 -0.22096327 -0.3993488
000140 24 3a 0c bf d0 35 87 be 9f a4 af 3e cb 29 3a 3c
       -0.54776216 -0.26408243 0.34305283 0.011362503
000150 de 5b 0d 3f b1 db 46 be 9f 9d a4 be c4 78 28 3f
       0.55218303 -0.19419743 -0.32151505 0.65809274
000160 3d a5 25 bf 17 fa 25 be aa 3d cb be 6e 8d 28 3f
       -0.6470526 -0.16208683 -0.39695483 0.65840805
000170 f1 87 c0 3e 61 33 94 be 28 c5 8b be d9 0b 8b 3e
       0.37603715 -0.2894545 -0.27298856 0.27157477

fc1.bias f4 [32]
000000 9f 72 43 bc 7d 31 aa 3e 6f eb bb be dd a7 9d be
       -0.011929183 0.33240882 -0.3670306 -0.30792132
000010 99 48 af 3b 8b 2e 02 3f 8f 84 17 3f 59 38 21 3e
       0.0053492305 0.5085227 0.59186643 0.15744151
000020 0b 53 ba be b4 82 ab 3e 07 18 80 3e 8b c3 c6 3e
       -0.36391482 0.33498156 0.2501833 0.38821062
000030 69 98 13 be 2b 6a 97 bc d0 ce cd 3e 15 fa c2 3e
       -0.14413609 -0.018483242 0.40196848 0.38081422
000040 77 d4 e2 3e 55 38 e1 be 62 41 05 3f 30 53 94 be
       0.44302723 -0.4398829 0.5205289 -0.28969717
000050 52 b5 6b 3c 08 5b 81 be 6a 65 de bd 11 f7 de 3e
       0.014386492 -0.25264764 -0.10859187 0.43547872
000060 8b 07 0d 3f 7f 5b 80 3e 3d b1 bd be 98 23 6a be
       0.55089635 0.25069806 -0.37049285 -0.2286514
000070 95 2e 0c 3f 2b c1 4e be c0 bc ee be 12 50 5b 3e
       0.5475858 -0.20190875 -0.4662838 0.21417263

fc2.weight f4 [64, 32]
000000 94 f0 a6 be 08 81 16 3d df 1e a5 bd c1 16 84 bb
       -0.32605422 0.036744148 -0.08062529 -0.004031033
000010 7f 93 43 bd a1 02 50 3d 7b 49 9b 3a ab a7 42 be
       -0.047748085 0.050783757 0.001184746 -0.19009273
000020 78 00 57 3c 44 cd 8d 3e 52 e3 9a bd ff f7 fd bd
       0.01312267 0.27695668 -0.07562889 -0.12400817
000030 64 3d e6 bd 08 6e 2f 3e 72 f9 92 3e c2 af 42 bd
       -0.11242178 0.17131817 0.28705937 -0.047530897
000040 21 54 ef 3c 09 bc 59 bc f5 8d 7f 3e 8c 05 f8 bd
       0.02921492 -0.01328946 0.24956496 -0.12110433
000050 b2 7c 08 3e 6f b9 4f be e3 ae 86 be 65 f5 8f 3d
       0.13328817 -0.20285581 -0.26305303 0.07029227
000060 c2 c8 44 bd b6 3d ad 3d 72 a5 d8 bd b0 3b 52 be
       -0.04804302 0.08459036 -0.10578431 -0.20530581
000070 a7 8f 34 3e 4e f1 15 3e 34 92 55 3d 60 30 19 3e
       0.17632924 0.14642832 0.052141383 0.1495986
000080 bc 4c af bd 7e 07 97 bd d7 58 6d 3d 1a 5d 6c bd
       -0.08559558 -0.07374476 0.057946052 -0.057705976
000090 79 70 bd bd 71 6f 2f 3e 0b ae 0a be 18 6f f5 3c
       -0.09249968 0.17132355 -0.13542955 0.0299602
0000a0 ec 79 de bd 22 89 fa 3c f0 62 39 3d 5b 70 45 3e
       -0.108630985 0.030582968 0.04526037 0.19281141
0000b0 b9 32 e5 3d c0 e7 bc bd c0 62 c8 3d 21 51 53 be
       0.11191315 -0.0922389 0.0978446 -0.20636417
0000c0 14 30 92 3d 94 e6 27 bd b1 de 9a 3d 5a 89 97 3d
       0.071380764 -0.04099138 0.07562006 0.073992446
0000d0 c5 0c 7b 3d 93 52 f9 3c 1e ad 88 3e 9d 9e 74 3e
       0.061291475 0.030434882 0.26694578 0.23888631
0000e0 f7 b2 03 bd 7e 5b 57 bd ca e4 07 3e 2a 8d 0b 3e
       -0.032153096 -0.052577488 0.1327087 0.13628069
0000f0 59 72 66 3e b1 be 75 3e a3 b8 e3 3d 17 df 5d bc
       0.22504558 0.23998524 0.11119201 -0.013541958
000100 c3 78 77 3d 68 84 2c bc a0 5d 40 3d 63 3f 84 be
       0.0604179 -0.010529615 0.046964288 -0.2582961
000110 72 59 61 bb 9f 56 85 3e 2d a2 fb bc db 1c 30 3c
       -0.003438559 0.2604265 -0.03071698 0.010749067
000120 b1 df 1b be 00 67 0a 3e a4 67 dd 3c 81 63 78 3e
       -0.1522205 0.13515854 0.027026959 0.24256708
000130 e8 c3 33 3c c3 3a fb bd 81 4d 8e 3e 3a a6 04 be
       0.010972001 -0.12267067 0.27793506 -0.12954035
000140 ce 35 27 3d 07 47 07 3e 73 59 66 3e 0d 67 34 be
       0.040822797 0.13210689 0.2249506 -0.17617436
000150 84 c1 2c be 07 c8 2f bd 2f 32 d1 3d 52 8f 1e 3e
       -0.16870695 -0.04291537 0.1021465 0.1548436
000160 3c c2 5f 3e bc 45 62 3d d8 dd 2b be d1 7d da bd
       0.21851438 0.055242285 -0.16783845 -0.10668529
000170 7c f0 58 3e 9e 00 58 3d f8 cb 57 be 55 bf 99 3a
       0.21185488 0.052734964 -0.21073902 0.0011729995
000180 50 a1 0a 3d 8b 89 30 bd 08 59 b8 3d 37 3d 8e 3d
       0.033845246 -0.04309992 0.09001356 0.069452696
000190 88 5c 60 3e a2 ad 3e 3e 40 3e c0 bc b8 62 20 be
       0.21910298 0.18620923 -0.023467183 -0.15662658
0001a0 2f bc 15 3d 02 e1 97 3d 4a 3e f8 3d 40 64 ac 3d
       0.03655642 0.07415964 0.12121256 0.08417559
0001b0 11 81 3a 3e 19 55 6f 3d 8a c4 0d bd 26 f8 88 3d
       0.18213297 0.058430765 -0.034611262 0.066879556
0001c0 52 e9 75 be 5a d7 39 3e 2a 86 55 bc 39 e4 a2 3d
       -0.24014786 0.18148556 -0.0130324755 0.07953686
0001d0 85 34 82 bd 0e d1 14 3e 9a ab 05 3e 0a 0d 3d be
       -0.063576736 0.14532873 0.13053742 -0.18462005
0001e0 d4 41 30 be 33 ab d2 3d 9c 8e f5 bd a0 39 d4 bd
       -0.17212611 0.1028656 -0.11990091 -0.103625536
0001f0 b3 d9 07 3e 22 bd 30 3e f7 35 17 be 9e 44 b0 3d
       0.1326664 0.17259648 -0.1476668 0.08606838
000200 61 80 8f be 88 ee 50 3e 35 a4 5b 3d 59 36 14 3c
       -0.28027633 0.20403492 0.053623397 0.009046161
000210 57 46 ee 3d d5 66 b1 bd f8 b4 1b 3e 0b 11 c3 bd
       0.1163451 -0.08662192 0.15205753 -0.09524735
000220 18 93 ff bd ba 7b 13 3e 02 ed d2 3d b8 12 1b 3e
       -0.12479228 0.14402667 0.10299112 0.1514386
000230 3c 2d 97 bd 0f da 9b 3c d9 a5 28 3e fe 7c de 3d
       -0.07381675 0.019024877 0.16469516 0.10863684
000240 22 5a 15 be 01 85 9f 3d fc d2 d1 3b 58 32 d2 bd
       -0.14585164 0.0778904 0.006403325 -0.102635086
000250 5d 62 46 3e 93 8d 94 3d 0f 90 d8 bc e3 18 00 3e
       0.1937346 0.07253566 -0.02643588 0.12509494
000260 e1 4b 4f 3c cd d0 56 3e d9 18 53 3c b5 b1 0a be
       0.012652368 0.20978089 0.012884342 -0.13544352
000270 ff 8c 09 3e c8 72 36 3e 3d 1a 5f 3d 4d 2f bb bb
       0.13432692 0.17817223 0.054468382 -0.005712426
000280 60 ee 3a 3e e0 e8 6f 3e 9b f6 1d 3d d6 f8 ef bd
       0.18254995 0.23428679 0.03856526 -0.117173836
000290 cd 8e 15 be 20 48 a7 3d f6 84 34 3d c3 e5 64 3d
       -0.14605255 0.081680536 0.044072114 0.05588318
0002a0 7b 8c 9e 3d f2 35 40 bd a2 94 c4 3d 7f a4 99 3e
       0.07741638 -0.046926446 0.09598662 0.30008313
0002b0 e4 c3 11 3d 2b a0 01 be 7f 84 ac bd 80 33 45 be
       0.035587206 -0.12658755 -0.08423709 -0.19257927
0002c0 2a 18 1c 3e 53 8a b9 3d 07 c3 9e 3d 90 26 83 3d
       0.15243593 0.090595864 0.07752042 0.064038396
0002d0 50 78 76 be c7 ed 74 bd c9 61 84 3e e1 0b 0b 3d
       -0.24069333 -0.059797075 0.25855854 0.033946875
0002e0 74 e1 09 3e f4 d5 bb 3c d8 c1 71 3e 14 3e 29 be
       0.1346491 0.02292917 0.23609102 -0.16527587
0002f0 65 b3 3b 3e 10 93 00 bb 6b 17 97 3d 3e 85 05 3d
       0.18330152 -0.0019618906 0.073775135 0.032597773
000300 54 2c a4 bd a5 97 dd bd 37 47 09 3e 54 d0 2f be
       -0.080162674 -0.108199395 0.13406073 -0.17169315
000310 d6 a2 6e 3e c8 7a 7a bd 40 b6 92 3e 21 fc 22 be
       0.23304304 -0.06115225 0.2865467 -0.15916492
000320 14 25 80 3c be fd 1c 3e dd ee 35 3e e4 e5 86 3e
       0.01564268 0.1533117 0.177669 0.26347268
000330 a1 ef c3 3d 99 98 58 bd 25 b7 8b bd d3 87 9e 3e
       0.0956719 -0.052879903 -0.068220414 0.30963
000340 e8 b5 26 3c 69 20 86 bd 66 09 80 3d 2c b2 18 3e
       0.010175206 -0.065491505 0.062517926 0.14911717
000350 99 41 18 bc b1 d6 0d 3e fc 5f 4e be 9d be 44 3e
       -0.009292983 0.1385143 -0.20153803 0.19213338
000360 f8 ef 30 3c c2 12 58 3e e4 ab 6e 3d 02 d1 13 3e
       0.0107994005 0.21100906 0.058269396 0.14435199
000370 a4 f0 03 3e 2d d0 0b be 7f fd 77 3d e9 3c f8 bc
       0.12884766 -0.13653632 0.060544487 -0.030302482
000380 d9 05 6d bd 33 2c fb 3d 12 d7 1c be e4 ca 19 bd
       -0.057866905 0.1226429 -0.15316418 -0.037547007
000390 fc 10 ad bc a6 c1 13 bd 71 5c d3 bd 79 e6 20 bd
       -0.021126263 -0.03607335 -0.10320366 -0.039282296
0003a0 ed 3a 34 3e 8e 3b 0c 3e cc c6 c6 bd bc 1c 40 be
       0.17600603 0.13694593 -0.09705886 -0.18760961
0003b0 83 51 13 3e cd 48 10 be 49 50 8a 3d 84 6a 7a bd
       0.14386563 -0.14090271 0.067535944 -0.061136737
0003c0 9f 02 c9 bd 24 91 07 3e 82 a6 57 be 36 ca d2 3b
       -0.09814953 0.1323896 -0.21059611 0.006432797
0003d0 7f 7d 23 3e 34 25 28 3e 7a bd 3d 3e 16 f3 b9 bd
       0.15965842 0.16420442 0.18529311 -0.09079568
0003e0 98 61 b9 3d 13 64 31 3e 33 7a 08 3e a8 f9 96 bd
       0.09051818 0.17323332 0.13327865 -0.07371837
0003f0 fe 8d a5 bd 2f 89 1d bd 01 f1 c5 bd 27 1e 74 bc
       -0.080837235 -0.038460907 -0.096651085 -0.014899767

fc2.bias f4 [64]
000000 29 2d 82 3e 06 90 c3 bd c5 90 e9 3d da 3e 02 be
       0.2542508 -0.09548955 0.11404566 -0.12719288
000010 56 63 1d be b6 fd d9 3c a3 c8 41 3e a1 df 1f be
       -0.15369925 0.026610237 0.18924193 -0.15612651
000020 fe 71 46 be e3 67 f6 3d 50 a1 2d be 98 ab 91 3e
       -0.19379422 0.120315336 -0.16956067 0.28451228
000030 11 ef 27 3d 9a f7 17 3e 93 a8 82 3e ba 99 87 3d
       0.040999476 0.14840546 0.25519237 0.06621118
000040 74 5b e2 bd 71 74 ca bd a5 ef 06 be 4a 69 1e be
       -0.110525995 -0.09885491 -0.13177355 -0.15469852
000050 20 db 48 3e 9f fc 97 bd f5 4a b6 bd 25 e2 d2 bc
       0.1961484 -0.074212305 -0.08901016 -0.0257426
000060 2c 3d 53 bd 13 97 77 bd 83 72 76 3e 95 c5 80 3d
       -0.05157201 -0.06044681 0.2406712 0.06287686
000070 58 87 0f be df 14 66 ba 42 7b 08 be 85 ac 00 3e
       -0.14016473 -0.0008776914 -0.13328269 0.12565811
000080 e9 46 d9 3d d4 d9 29 3e ef 0b e2 3d 0f a2 38 be
       0.10609228 0.16587001 0.110374324 -0.1803057
000090 fd d2 d9 bd d7 98 4e 3d c5 ec 6e 3e a2 ea 8f 3d
       -0.10635946 0.05043873 0.23332508 0.070271745
0000a0 c5 87 4c 3d 04 73 89 3d 1e 9e 21 3e 1f 85 eb 3d
       0.049934167 0.067113906 0.15782973 0.115
0000b0 d1 df 0f bd 3a bc 91 3d 5d 12 11 3b 85 60 0e 3e
       -0.035125557 0.071159795 0.002213619 0.13904007
0000c0 26 1e d2 3b 18 01 30 3e a8 9b b7 bd d8 7a a1 bd
       0.0064122854 0.17187917 -0.08965236 -0.07884759
0000d0 5c a4 93 3c ed 97 cf bd a9 2c 82 3e 76 59 74 bd
       0.018022709 -0.101363994 0.25424698 -0.05965563
0000e0 71 2e 0b bc 2f 61 1f be ed f1 05 3d 68 4f e8 bd
       -0.008494959 -0.15564416 0.03270142 -0.113432705
0000f0 a8 28 3e 3d 0b 6c ce 3c e7 6a 69 3e da f2 20 bd
       0.04642549 0.025198003 0.22794686 -0.0392941

fc3.weight f4 [64, 64]
000000 a5 c7 b1 bd ee ec ef bd 4c 63 61 bd 52 82 c7 bd
       -0.08680657 -0.117151126 -0.055026338 -0.097416535
000010 c4 14 ae bd 56 93 00 be ea 2e dc 3d d6 83 e0 3d
       -0.085000545 -0.12556204 0.10751136 0.10962646
000020 5f 22 7c bd 80 58 30 3b e8 fb 92 bc 98 1c 73 3d
       -0.061556216 0.002690822 -0.017942384 0.05935344
000030 08 f8 21 3c ac 05 8e 3d a8 13 23 3d 20 1a 06 bd
       0.009885795 0.069346756 0.039813668 -0.03273976
000040 99 d0 10 3d 1b 17 73 3d b6 00 ed 3d 7a f7 08 be
       0.035355184 0.059348207 0.11572401 -0.13375655
000050 10 c2 78 3d cb 7b b7 bd 70 8c 93 3c 56 9f 94 3d
       0.060731947 -0.089591585 0.018011302 0.072569534
000060 3a a9 9c bd 76 8d d1 bb 69 21 fa bd 44 5e 9c 3c
       -0.07649465 -0.0063950373 -0.12213404 0.019087918
000070 30 19 e6 bd b3 ee 81 3d 66 8f 2d 3d 90 a5 93 bd
       -0.11235273 0.063443564 0.042373084 -0.07209313
000080 e8 66 19 3c 78 c0 3f bd db eb 80 3b e0 27 ef bd
       0.009362914 -0.046814412 0.003934366 -0.116775274
000090 d8 14 94 bc 24 a2 23 3d c7 5f c5 bd 6b fa a3 3d
       -0.018076345 0.03994955 -0.09637409 0.08006748
0000a0 56 4a 8c bd 04 6d 52 3d 28 2f ba 3c 10 b8 49 bd
       -0.06850116 0.051373497 0.022727564 -0.0492478
0000b0 88 03 91 bc 26 11 24 bb 46 a2 70 3d da c7 5c bc
       -0.01770188 -0.0025034635 0.058748506 -0.013475383
0000c0 90 c5 08 3d f4 9a c5 3d c1 7f 8b bc b8 f5 90 3d
       0.033391535 0.096486956 -0.017028691 0.07078117
0000d0 44 85 bf bd c4 b3 24 3d c2 94 fe bd f8 f6 8c bc
       -0.0935159 0.0402105 -0.12430717 -0.017207608
0000e0 20 0d 9c 3d 98 11 cd 3d 88 b9 ae 3d 27 e1 54 3d
       0.07619691 0.10013121 0.08531481 0.051972535
0000f0 d2 dc 8c bd e7 62 7a 3d d4 05 94 bd 2a 74 90 3d
       -0.06878056 0.061129477 -0.07227674 0.070534065
000100 2c 61 2d bd 25 b6 eb 3c 82 7d 95 3d 1e dc 0b be
       -0.042329 0.028773377 0.07299329 -0.13658187
000110 10 61 0d bd f8 1f 2b 3e 31 e4 16 3d ce 0f 18 3e
       -0.034516394 0.16711414 0.036838714 0.14849779
000120 7f e1 24 3e 8f 73 2b 3d 0c c7 39 bc b6 f6 0d bd
       0.16101645 0.041858252 -0.01133896 -0.03465911
000130 7b 27 2c 3d c0 45 09 3c ad 61 00 be c1 6f f9 bd
       0.04202984 0.008378446 -0.1253726 -0.121795185
000140 72 24 fe 3d 2e c9 7e 3d 90 fc bd bd c7 c6 c8 3d
       0.12409295 0.06220358 -0.09276688 0.09803539
000150 34 8b 0d 3e f7 ef ed 3d 88 a0 d5 3c 0c dc 5e bd
       0.13822633 0.11618035 0.026077524 -0.05440907
000160 d0 04 e7 bd d2 5a ca 3d e8 f2 81 3b 40 5a 2d 3b
       -0.11280215 0.09880604 0.0039657243 0.0026451498
000170 bf 0e 09 3d 97 fb 9f 3c 0d 94 56 3e 47 a0 78 bc
       0.03346133 0.019529147 0.20954914 -0.015174932
000180 19 b4 03 bd 63 ee 9b 3d ea 0f 8b 3c ac 84 39 3e
       -0.032154176 0.07613828 0.016975362 0.18117017
000190 f0 d8 bb bd 03 64 2a 3e 38 a9 44 be e0 ec 8f 3d
       -0.09172237 0.16639714 -0.19205177 0.07027602
0001a0 31 81 da 3d de e5 1f be 6f 8c de bd c4 8b ba bd
       0.106691726 -0.15615031 -0.10866629 -0.091086894
0001b0 78 5b 13 be 51 8b 02 3e 26 1e 1a 3e 4d b6 d6 3d
       -0.14390361 0.12748457 0.15050563 0.1048399
0001c0 58 17 5d 3e 62 84 3a bc 8c d8 01 be a4 91 13 3e
       0.21590936 -0.011384102 -0.12680262 0.14411026
0001d0 e7 56 31 be 9a 44 4e 3e 1d dc 07 be 19 28 37 be
       -0.17318307 0.20143357 -0.1326756 -0.1788639
0001e0 e5 fa 80 3d bb a6 2e bb 7d c8 e8 3d e8 46 ff bd
       0.06297854 -0.0026649672 0.11366365 -0.12464696
0001f0 a2 a4 71 bc be 6e 89 bc 9e b3 25 bd 38 a1 cb 3d
       -0.014748724 -0.016776439 -0.0404545 0.099428594
000200 2b 2b d5 bd 35 11 da 3d 75 a8 2f be 0e 5d 74 bd
       -0.10408624 0.10647813 -0.17154105 -0.059659056
000210 a7 0f e7 3c 56 f8 4d 3d a4 8c 05 3d 68 e6 90 3c
       0.028205706 0.05028566 0.03260483 0.017687991
000220 0b e2 14 3e 4e 1d 23 3d 9d 48 d1 bc 86 79 cb bd
       0.14539354 0.03982287 -0.02554732 -0.09935288
000230 a2 3c 83 3d c2 c2 9d bd 45 f0 b2 bd 57 bb 57 b9
       0.06408049 -0.07703163 -0.08737234 -0.00020573787
000240 09 71 e4 bd e2 2e ea 3e 70 e8 c6 bc 74 eb 15 3d
       -0.11154372 0.45738894 -0.024280757 0.0366015
000250 03 d8 6a bd 9c 0a e0 3d 73 4d 00 3e 58 86 77 bd
       -0.05733491 0.109395236 0.12529545 -0.060430855
000260 5c 46 a3 3d 2c 2e 34 be 00 b2 08 bc 7e d6 72 3c
       0.07972404 -0.17595738 -0.00834322 0.014821647
000270 7b 8b 9f 3b f2 87 99 3d 98 39 0e bd 0a 2c 2b be
       0.0048689223 0.07496633 -0.034722894 -0.16716018
000280 12 20 96 be a7 f3 15 be dd cb cd 3c 58 82 7d bd
       -0.29321343 -0.14643727 0.025121624 -0.061891884
000290 02 37 25 3e 69 f5 17 be af b5 8a 3b 7f d1 93 bd
       0.16134265 -0.1483971 0.004233084 -0.072176926
0002a0 f5 1e a7 bd 90 e7 82 bd e3 bc 61 be 57 7d 3e 3e
       -0.081602015 -0.06391823 -0.22044711 0.18602501
0002b0 c3 ac 4e 3e cd 83 5b bd 0d ea 2c be 61 d9 79 bc
       0.20183091 -0.053592492 -0.16886158 -0.015249581
0002c0 73 2d eb 3d fb 27 14 be e8 8f 3c 3e 6c db 07 3d
       0.11483278 -0.14468376 0.18414271 0.03316824
0002d0 f8 37 a2 3c 2a 22 19 3e 22 18 a8 3d 89 c3 21 3e
       0.019802079 0.14954439 0.08207728 0.15797247
0002e0 c1 e4 d3 3d d7 92 24 bc 80 26 a0 3c 28 e7 e1 3d
       0.10346366 -0.010044775 0.019549608 0.11030418
0002f0 71 a4 43 3e cd d1 1c 3e 4d 77 4e be d0 1a 00 3c
       0.19105698 0.15314408 -0.20162697 0.007818893
000300 a9 9d 82 bd c3 19 06 3e 57 1a fd bb ca 66 9b 3d
       -0.063777275 0.13095765 -0.007724087 0.07587965
000310 9e 36 c9 3d d0 5c 41 3d fa f1 79 bd 36 c4 df bd
       0.098248705 0.047207654 -0.061021782 -0.10926096
000320 2f 07 9d 3d cf 07 c0 3c 99 5d 9c 3d fa 64 ae bd
       0.07667386 0.023441223 0.0763504 -0.085153535
000330 61 f1 3e 3d b4 9e a4 3d 75 fe cf bd 6e 59 62 bd
       0.046616916 0.08038083 -0.10155956 -0.055261068
000340 70 93 69 3d 36 af 57 3e c8 2c e0 bc 44 38 fa bd
       0.057025373 0.21062931 -0.027365103 -0.12217763
000350 e7 5b 8c bd 16 04 dd bd e2 a3 9b 3a 98 89 f4 3c
       -0.068534665 -0.10791795 0.0011874402 0.029850766
000360 a5 5d 6d 3e 44 f7 ed bd e3 f7 b6 3d ee 27 a2 bd
       0.23180254 -0.11619428 0.089339994 -0.07917772
000370 eb 9f 03 bd 52 48 b6 3d d3 96 0b 3e b1 43 83 bd
       -0.03213493 0.08900513 0.13631754 -0.064093955
000380 05 62 d6 3c 29 17 82 bd 68 b8 15 be 8c 1f 7d 3d
       0.026169786 -0.06352074 -0.14621127 0.061797664
000390 b7 f9 3c 3e 1f ef 27 be 32 da a1 3a c9 91 f2 bd
       0.18454634 -0.16399811 0.0012348352 -0.118442126
0003a0 7c b3 60 3d 97 55 2f be d7 d2 6e 3d 2a b6 ee 3d
       0.05485867 -0.17122494 0.05830654 0.11655839
0003b0 29 e5 56 3b f6 34 e8 3d 77 33 8c 3d ef ed b5 bc
       0.0032790399 0.113382265 0.06845754 -0.022208182
0003c0 fc 9a 89 3c 86 85 6f bd ab f3 12 3e 49 7c 92 3d
       0.016797535 -0.058476947 0.14350764 0.07152612
0003d0 61 49 0d 3c fe 09 1f 3e d7 0a 30 3d 21 a8 07 3b
       0.008623452 0.15531155 0.042979088 0.0020699578
0003e0 d5 08 39 3e e5 e1 86 3c b7 09 8b bd 1a 92 f5 3d
       0.18069775 0.016465137 -0.06788962 0.11990757
0003f0 31 c1 14 3e 62 99 7e bd 5f 16 b6 bc 9a 60 f2 bd
       0.14526822 -0.062157996 -0.022227464 -0.118348315

fc3.bias f4 [64]
000000 8b 93 a3 bd eb 7f 80 bd 24 a8 e7 3c cb c3 0f be
       -0.07987126 -0.062743984 0.028278418 -0.14039533
000010 5d 1f fd bd b5 60 1d be 12 99 98 3d 40 e2 a6 bd
       -0.12359498 -0.15368922 0.07451071 -0.081486225
000020 d8 d4 85 bc a2 25 3d bd 6f 20 5c bd 4a a8 08 be
       -0.016336843 -0.046178468 -0.05374187 -0.13345447
000030 88 91 15 be 03 25 cb bc 98 97 86 bd 44 41 0c 3d
       -0.14606297 -0.024797922 -0.06571883 0.03424193
000040 d6 3e d7 bd 8d 04 fb bc f4 41 7d bd 0d 02 8d bd
       -0.10510032 -0.030641818 -0.061830476 -0.06885157
000050 61 d1 12 3c 42 4f 10 be 2c 83 56 bd 58 4f dc bd
       0.008961053 -0.14092734 -0.05237119 -0.10757321
000060 42 6a 8f 3b d8 56 07 3c 1d 74 0b be 20 2d 2a 3e
       0.0043766806 0.008260451 -0.13618512 0.16618776
000070 5f 8f 82 3b 0f cd 27 3e e7 c4 2d be 2a d3 d8 bd
       0.0039843763 0.16386817 -0.16969644 -0.10587151
000080 8a 3d 4b bd bb e5 ed bd 68 e1 e4 bd 8c 0d 1c bd
       -0.049619235 -0.11616083 -0.11175805 -0.038098857
000090 02 8f 9d 3d 4c 2f c8 bc e5 1d a0 3d bf f4 21 be
       0.07693292 -0.024436615 0.07818202 -0.1581602
0000a0 26 41 ba bd d8 b6 5b 3e 4b 61 2b be be a7 19 be
       -0.09094457 0.21456468 -0.16736333 -0.15005395
0000b0 4d 6e 9d bb 76 8d 29 bd f5 76 a5 3d 82 9b 1b 3e
       -0.0048044086 -0.041394673 0.0807933 0.1519604
0000c0 7b 60 05 bd 94 57 18 be 40 d0 e8 bb ac 06 04 3c
       -0.032562714 -0.14877158 -0.0071049035 0.008058231
0000d0 87 4f 8b 3d bb 86 a1 3d 36 e5 f3 3d a7 95 7b 3d
       0.06802278 0.07887026 0.11908953 0.061422016
0000e0 bf 21 40 3e 7c 67 c8 3c 3a 77 92 3d ed e8 6c 3c
       0.18762873 0.024463408 0.07151647 0.014459831
0000f0 38 6f b4 bd 5b ac 16 3e 6c c0 54 3c 6f ea 5d 3e
       -0.08810276 0.14714186 0.01298533 0.2167146

classifier.0.weight f4 [32, 64]
000000 2a fc b2 3d 9b c9 c5 3d d7 a8 ba bc a2 71 c4 bd
       0.08739503 0.09657594 -0.022785587 -0.09591986
000010 18 01 6e bc 24 91 e8 bc 24 a4 38 3d 56 f6 ce bd
       -0.014526628 -0.028389521 0.04507841 -0.101055786
000020 51 87 81 3c 55 50 32 3e d6 d1 35 3e ed 58 bd bd
       0.015811594 0.17413457 0.17755827 -0.09245477
000030 d7 02 01 3d 33 1f 5a be 09 87 eb 3d 8f e0 0a 3e
       0.03149685 -0.21300964 0.11500365 0.13562225
000040 fa d1 25 be 9c d6 fe bd 53 1f 10 be 7b d9 b6 bc
       -0.16193381 -0.12443277 -0.14074449 -0.0223205
000050 0f 5b 1e be db eb a6 3d a5 34 c3 3d ae 81 84 bd
       -0.15464424 0.081504546 0.095315255 -0.06470047
000060 7f b2 ac bd 03 85 c4 bd cf 82 4b bc 54 73 39 3e
       -0.08432483 -0.095956825 -0.012421324 0.181104
000070 50 37 24 be 29 07 1d 3e 43 6d 0a be 8d 77 ee bd
       -0.16036725 0.15334763 -0.13518243 -0.11643896
000080 27 f3 21 bd 5f 68 4c 3d 90 41 8a 3d b3 26 7c 3c
       -0.03953853 0.049904224 0.06750786 0.015390086
000090 f7 98 f3 3b 11 2e 13 bc 99 b9 29 bd 48 dd c0 bd
       0.0074340063 -0.008983151 -0.041436765 -0.09417206
0000a0 25 40 6e bd 6a ad 41 3e 9f 16 3d be 19 01 e7 3c
       -0.05816664 0.18913808 -0.1846566 0.028198766
0000b0 65 1e 70 3a b4 e2 92 3d 9b 9f 9d bb aa 0a e3 3c
       0.00091598026 0.071721464 -0.004810286 0.027715046
0000c0 ec ec 0f be ec 4e 0d be 34 15 c4 3d 70 ac d0 3b
       -0.14055222 -0.13799638 0.09574357 0.0063682124
0000d0 05 70 79 3c ae c9 1a 3d 8a 5a 1c 3e bf 83 ea 3d
       0.015224461 0.037789993 0.15268913 0.1145091
0000e0 98 2a 0c 3e 5d 8c 17 be d9 7e 13 3d b2 70 3d 3e
       0.13688123 -0.14799638 0.036009643 0.18500021
0000f0 b0 31 96 bd ed 3e 04 bd 80 6f ac 3b 3e 2c 0b 3e
       -0.07333696 -0.032286573 0.0052623153 0.13591096
000100 3b a8 ef 3d ea 1b ef bd 40 33 f9 bd c6 83 61 3c
       0.11702009 -0.11675246 -0.12167978 0.013764327
000110 3d 32 9c 3d 50 bc 93 bd fd 91 e4 bd 18 a6 75 bd
       0.0762677 -0.07213652 -0.111606576 -0.059972852
000120 4d 9c 94 3c 6b 89 35 3d 01 36 0e 3d 78 3c a3 3c
       0.018140936 0.044320505 0.03471947 0.019926295
000130 f6 5b c7 bc d2 45 3f bd 1d 9b 98 bd 65 74 d0 bc
       -0.024335843 -0.046697445 -0.074514605 -0.025446126
000140 92 87 9f bd be ed ac bc 0e 91 76 3d c9 16 91 bd
       -0.0778953 -0.021109458 0.06019693 -0.07084424
000150 7f 6f 20 3c 95 81 a1 3d 69 5e 00 be c4 03 04 bd
       0.009792208 0.07886044 -0.12536015 -0.032230154
000160 90 b2 a1 3d 74 5f e9 bd 7b 15 e8 3c b8 92 19 bd
       0.07895386 -0.11395159 0.028330555 -0.037493438
000170 a4 b8 2a bd fa ee de 3c ba 4f c7 3d d7 e9 df bd
       -0.041679993 0.027213562 0.097320035 -0.10933273
000180 1a 90 d7 bd 3f a9 b1 bc 90 2c fd 3c 7f 79 33 3c
       -0.10525532 -0.021687148 0.030905038 0.01095426
000190 6f ee 00 bd c1 e9 14 bd c7 50 98 3d ed e2 0c be
       -0.031477388 -0.036355738 0.07437282 -0.1375844
0001a0 b7 e2 cd 3d 8d 77 9b 3d 9d d4 1f bd eb 97 43 3c
       0.10053008 0.07591162 -0.039021123 0.011938076
0001b0 cf ae 29 3d 8a e7 6c bc 07 52 38 bd 07 51 8b 3d
       0.041426476 -0.0144595 -0.045000102 0.06802564
0001c0 3b 45 9b bd 4c c6 db 3d 3a 7e 43 3d e2 3c 93 3d
       -0.07581564 0.107311815 0.0477278 0.07189347
0001d0 89 77 98 3d 58 e6 01 3d 6f 6e 01 bd ac 45 91 3c
       0.074446745 0.031713814 -0.03159946 0.017733417
0001e0 d0 40 2e 3d 0e e2 0a be 99 b9 62 3d bd 06 6f bd
       0.04254228 -0.13562796 0.05535278 -0.058356036
0001f0 77 6e 24 bd 1c be 0f be af e8 3a bd f5 0c ba 3a
       -0.04014441 -0.14037365 -0.04563206 0.0014194535
000200 94 29 e8 3d 49 bb e3 bd b5 c7 27 3d 01 83 d1 bc
       0.113360554 -0.11119706 0.04096194 -0.025575163
000210 32 ce 4c bb a8 b2 31 3c 2d 05 dd 3d e8 c8 bd 3c
       -0.0031250832 0.010845818 0.10792003 0.023167089
000220 91 5d df bd 91 d7 a2 bd 9d 84 88 3d 58 30 bc 3c
       -0.10906518 -0.07951272 0.06665919 0.02297227
000230 b3 73 8e bd f8 9d dc 3d 3f d5 c8 bb 71 f3 7e bd
       -0.069556616 0.10772318 -0.0061289365 -0.062243883
000240 38 ff 9a 3d 9e 02 d3 bd 92 00 d4 3d 5d 15 14 3d
       0.0756821 -0.103032336 0.10351671 0.036153186
000250 2a 65 3e bd 7a bf c1 3d c2 33 62 bb 07 40 e7 3d
       -0.046483196 0.094603494 -0.0034515713 0.11291509
000260 b8 8d 73 3c 09 fb 84 bd a2 de 0a 3c b6 81 07 be
       0.014865331 -0.06493194 0.008475931 -0.13233075
000270 74 b1 66 bd 98 d5 b3 bd fc 8c ab 3d d7 1a d1 ba
       -0.056321576 -0.08780974 0.083765 -0.0015953433
000280 ad b2 1f bd 33 a1 90 bd 80 3c 11 3b fa 77 35 3c
       -0.038988758 -0.07061996 0.0022161305 0.011075968
000290 c5 7d 1f 3c 37 15 16 bc 34 d4 ca 3d bb 7a 01 be
       0.009734576 -0.009160331 0.09903756 -0.12644474
0002a0 99 49 bd bd 94 34 b6 3d 2b f9 12 bd b2 4c b4 3d
       -0.09242553 0.08896747 -0.035882156 0.08803691
0002b0 e1 ff d3 bd 25 f3 8a 3d 0c 2e 4f 3d 16 92 d3 bd
       -0.103515394 0.067846574 0.050581023 -0.10330598
0002c0 0f 22 85 bd 85 ca 82 3c c0 c9 6a b9 10 c8 96 bd
       -0.06500637 0.01596571 -0.00022391137 -0.07362378
0002d0 e7 7a b6 bc 16 73 ed bd cc a8 90 bd 09 3f b5 3b
       -0.022275401 -0.115942165 -0.070634454 0.005531196
0002e0 98 e5 bb bd a0 68 cc 3c cd d8 61 ba 74 c3 c7 3c
       -0.09174651 0.024952233 -0.00086153747 0.024385192
0002f0 83 cf 3f 3d 40 96 e0 bd f1 49 a3 3d 3d e0 bc 3d
       0.046828758 -0.10966158 0.079730876 0.092224576
000300 cb 87 25 bc af ea 06 be 6d 8b 7d bc 1f f2 ca 3d
       -0.010103176 -0.13175462 -0.015475136 0.09909462
000310 c1 dc 26 bd ca b4 41 be f1 ae cb bd 00 08 0e ba
       -0.04073787 -0.18916622 -0.09945477 -0.0005418062
000320 b6 d4 83 3c db af c8 bc dc 94 91 3c ce 60 e5 bb
       0.01609264 -0.024497917 0.017771177 -0.0070000654
000330 bb f8 e1 3d 8a b5 eb bd 5d ec ad bd c6 f8 03 be
       0.1103377 -0.11509235 -0.08492348 -0.12887868
000340 ea ba 33 3d 20 dc 0d 3e 77 7e 3d 3e 8d 87 10 3d
       0.043879427 0.13853502 0.18505274 0.03528552
000350 e5 d3 cc 3d fa 2d 86 bc ae 2f 36 bc 8e d4 15 bd
       0.10001353 -0.016379345 -0.011119766 -0.03657966
000360 4b dc 49 3c 14 cf 6d bd 27 4c 28 3c f4 9d 32 3d
       0.012320588 -0.058058813 0.010272062 0.043607667
000370 32 c4 2e 3e f8 68 cd 3d 1d 20 35 3e 84 bc 50 bd
       0.1706703 0.10029787 0.17688031 -0.050961033
000380 c0 f7 4d 3e 05 6f 15 3e 58 27 a5 bd 4e 49 74 3e
       0.2011404 0.14593132 -0.08064145 0.23856089
000390 11 ed 8f bd 68 f4 db bd df c6 03 be 0c 43 2f be
       -0.07027639 -0.10739976 -0.12868832 -0.1711542
0003a0 0d 2d 71 3e 06 7c c2 bd 0a ec 3f 3c 71 f3 3c 3e
       0.23552342 -0.09496312 0.011713991 0.1845224
0003b0 3e b1 3b 3e 70 45 ff bd 55 2a 23 3e fb 4e 38 be
       0.18329331 -0.12464416 0.15934117 -0.17998879
0003c0 05 3e 4c 3e eb 58 5c bc 79 6b 3d 3e 27 8b 13 3e
       0.19945534 -0.013448934 0.18498029 0.14408551
0003d0 c9 3b 66 3c 2a f3 fb 3d 57 97 97 bc 5c e1 1e 3e
       0.01405234 0.12302239 -0.018504782 0.15515655
0003e0 ec 3d 2d bd b4 d2 e1 3d aa 63 ce 3d 6f 35 c4 3b
       -0.04229538 0.110265166 0.10077603 0.005987815
0003f0 46 0d 1b 3e b4 dc 16 3e e5 63 b6 bd 23 54 cc 3d
       0.15141782 0.14732629 -0.08905772 0.09976985

classifier.0.bias f4 [32]
000000 96 db 2a 3e 5e 8e 0e be 78 5c 38 bd 21 53 11 3d
       0.16685328 -0.13921496 -0.04501006 0.03547967
000010 53 5b 24 3d 3d 3a 45 3c 3a a6 8f bd 72 e5 cf 3d
       0.040126156 0.012037811 -0.07014127 0.10151185
000020 80 9e 27 3e d4 11 25 bd 04 c8 07 bd 9a 94 b2 bc
       0.16369057 -0.040300205 -0.033149734 -0.021799374
000030 60 3a 36 3d ff f2 92 3d 0e 98 d2 bc 1e fb cb bd
       0.044489264 0.07175254 -0.025707271 -0.09960006
000040 b9 75 05 3c d0 ff 8c bc db 0c 1c 3e e2 7d 48 3e
       0.008145743 -0.017211825 0.15239279 0.1957927
000050 d8 0f b3 bd a4 de 47 bd 4f 71 fb 3c 0e dc 33 3e
       -0.08743256 -0.04879631 0.030693678 0.17564413
000060 c0 3b 09 be 66 04 25 3e 34 19 bc 3d fe e3 d3 3d
       -0.13401699 0.16114959 0.091844946 0.103462204
000070 1b 33 93 bd 31 55 fc bc fa 0a a3 bd db c0 d0 bc
       -0.07187482 -0.030802341 -0.07961078 -0.025482586

classifier.2.weight f4 [3, 32]
000000 9c d0 64 3e b2 b9 14 be 69 81 19 3e e5 a0 e3 3d
       0.22345203 -0.14523962 0.14990772 0.111146726
000010 a0 f5 04 3d 49 6c 6f be 7a bc 48 bd ec 03 92 3e
       0.03246081 -0.23381151 -0.04900787 0.28518617
000020 43 56 fe bd b8 8f 1b 3e a9 32 58 bd d2 55 30 be
       -0.12418797 0.15191543 -0.05278269 -0.17220238
000030 dc f6 8d 3e d5 86 3e bd 7c 07 93 b9 54 bf 07 be
       0.277274 -0.046515305 -0.000280436 -0.1325658
000040 55 e3 5d be 7b 1a 6a bd f7 dc 5d 3e d0 3a 2c 3e
       -0.21668752 -0.05715416 0.21666323 0.1681931
000050 ed d2 2b 3d c9 e7 5d 3d 18 c5 74 3e 48 44 60 3e
       0.0419492 0.054176126 0.2390331 0.21901047
000060 b6 c3 d7 3d cf e4 b4 3d 50 bd f1 bd e3 78 81 3e
       0.10535376 0.08832704 -0.118036866 0.25287542
000070 2a f2 2b 3d f8 b4 51 be 72 fd 16 be c9 db 69 be
       0.041978993 -0.2047919 -0.14745119 -0.22837748
000080 6a 09 80 3e 6e f7 e0 3d c8 17 ea bc c2 3a 89 be
       0.25007182 0.109846935 -0.028575793 -0.2680264
000090 ed 51 82 bd 10 13 de bc 51 ae 88 3d b8 99 2f be
       -0.06363282 -0.0271087 0.06673873 -0.17148483
0000a0 9c f8 47 3e 58 1a b8 3d 79 6c 1e 3e 88 f6 17 3e
       0.1952843 0.089894 0.15471067 0.14840138
0000b0 ee e1 14 be 94 69 1b be 60 5e 25 3e 58 9b 80 3e
       -0.1453931 -0.15176994 0.16149282 0.25118518
0000c0 61 07 f1 3d b6 cb 1c bd ca c8 71 be 52 27 f8 bd
       0.117689855 -0.03828021 -0.23611751 -0.12116875
0000d0 99 be 8d 3d ec 3a 7a 3c da 57 e3 bd d2 06 8d 3d
       0.06921119 0.015272837 -0.11100741 0.068860665
0000e0 58 be 22 3e ca 5d 14 3e 16 93 8b be 95 3b 12 3e
       0.15892923 0.14488903 -0.27260655 0.14280541
0000f0 2b 25 c5 3d 36 30 0c be 4d 37 9b 3d 3e 03 ce 3d
       0.0962623 -0.13690266 0.07578907 0.10059212
000100 9d 2e 10 be c3 54 20 be 83 32 5f bd c5 ae 25 3e
       -0.14080282 -0.15657334 -0.05449153 0.1617995
000110 4a 86 74 3e 8a 92 10 3e 3b 21 ad bd 4d 16 66 be
       0.23879352 0.141184 -0.08453604 -0.22469445
000120 8b 95 7a be 3e e9 fd 3d c1 0e 97 bd e7 bc fa bd
       -0.24471109 0.12398003 -0.07375861 -0.122430615
000130 c6 2f 51 be 49 b7 14 3e 6f 6a 0e 3d cc 3a fc 3c
       -0.2042838 0.14523043 0.03476947 0.030789755
000140 1e 14 08 be d8 38 ea bc ba 10 47 be b9 12 4a be
       -0.13288924 -0.028591558 -0.19439974 -0.19733705
000150 b6 99 a7 bd 0c cd ff 3d 8b 74 36 3c fd b3 5d be
       -0.08183615 0.124902815 0.011136184 -0.21650691
000160 e2 7e 22 bd 30 9a 89 be 7d 21 1a bd 17 f2 6b be
       -0.039671786 -0.26875448 -0.037629593 -0.23041569
000170 f4 0b d3 3c d8 95 8f 3b c0 d1 05 be e5 ad d6 3d
       0.025762536 0.0043818764 -0.13068295 0.104823865

classifier.2.bias f4 [3]
000000 cd 6c 54 3d 42 ad c0 3d 45 70 52 bd
       0.051861573 0.09408046 -0.0513766
