outputs/ex1/test_plots/20251117_230408/model.pth (torch, 37861 bytes, 10 tensors)

fc1.weight f4 [32, 3]
000000 b7 cb 73 be 24 b9 85 3c 44 cd 93 be 72 51 61 3e
       -0.2380818 0.016323633 -0.28867543 0.22003725
000010 1c 54 fd be 6d 2a da 3e b6 5e d5 be a2 fe e9 be
       -0.49478233 0.42610493 -0.4167382 -0.45702082
000020 cb e1 bb be 90 ae 84 3e 44 23 5c be f8 47 60 3e
       -0.36695704 0.2591443 -0.21497828 0.21902454
000030 42 72 f9 be f3 a0 b4 be 3a 93 57 be 52 c2 ed bd
       -0.48719984 -0.35279045 -0.21052256 -0.11609329
000040 53 c2 e2 be c2 37 c0 3e 04 91 0d be 69 51 3b 3e
       -0.44288883 0.3754254 -0.1382485 0.18292774
000050 84 bc cf 3e 62 c5 dd 3d c9 34 24 3e 13 51 0f 3f
       0.40573514 0.108286634 0.16035761 0.55983084
000060 22 85 86 be dc c3 38 3e 54 2c 82 be b4 16 d3 3e
       -0.26273447 0.18043464 -0.25424445 0.4122826
000070 c9 55 ed 3e 2e 94 07 bf bd 60 fd 3e 1a 21 8d 3e
       0.4635451 -0.5296048 0.49487868 0.27564317
000080 83 84 7f 3e 32 74 76 3e 91 da f6 3e 32 8a 96 bd
       0.24952893 0.24067762 0.48213628 -0.073505774
000090 83 54 fb be 4b 81 2c be 0c d6 ce be 02 45 25 3d
       -0.49087915 -0.16846196 -0.4039768 0.040349014
0000a0 3a b6 e2 bd 98 77 9f be d4 8e 61 bd f1 7e 0c 3f
       -0.11069913 -0.3114593 -0.055067852 0.548812
0000b0 82 27 46 bd 27 4b ac 3c 66 f2 bd bd bd 6b bf 3d
       -0.04837752 0.02103193 -0.092747495 0.09346721
0000c0 5e 3d 03 3f 86 26 b6 3e b4 8d 4f 3e cd 05 fd 3d
       0.51265514 0.35576266 0.20268899 0.12354622
0000d0 43 56 0e 3e 53 65 66 3e bb cc 98 bd 8a 51 09 bf
       0.13900094 0.2249959 -0.07460924 -0.53640044
0000e0 28 a1 b5 be ca 47 fd 3e 50 30 15 3d 8c 7d f0 be
       -0.35474515 0.49468833 0.036423028 -0.46970785
0000f0 08 e0 bf 3d 87 c0 f2 3e da 04 0b bf 80 88 c5 be
       0.093689024 0.47412512 -0.5430428 -0.38580704
000100 34 2a 69 be c9 ef a7 3c 78 23 07 be fb f8 81 bd
       -0.22770005 0.02050008 -0.13197124 -0.063463174
000110 89 1f 10 bf 9e b0 89 3e 0d 31 01 3f 7a 65 b5 3e
       -0.5629812 0.2689256 0.5046547 0.35428983
000120 59 74 d2 be af 7d ef be 72 53 78 3e 91 6c 82 3c
       -0.4110439 -0.46775576 0.24250582 0.01592091
000130 87 a1 70 3e 4d 30 11 bf be dd 02 bd 29 e3 d1 3e
       0.23499118 -0.56714326 -0.03194975 0.40993622
000140 81 a8 87 3e 5e 89 9b 3c c8 62 e3 3d 18 ef 6a bd
       0.26495746 0.0189864 0.111028254 -0.057356924
000150 e4 fe a3 be 91 58 61 be cf 66 b5 be 34 96 f6 3e
       -0.32030404 -0.22006442 -0.3543 0.4816147
000160 4b 04 a4 3e 70 a2 4e 3e e5 5e e1 be 69 62 e4 3e
       0.32034525 0.20179152 -0.4401771 0.4460633
000170 1b 16 3c 3e 4a 47 cd 3e 39 55 6b be 91 54 f5 3d
       0.18367808 0.40093452 -0.22981729 0.119790204

fc1.bias f4 [32]
000000 1a 63 10 3f e2 5d c8 3e 46 a8 eb 3e 69 35 f9 bd
       0.56401217 0.39134127 0.4602682 -0.1216839
000010 10 f4 e0 3e 87 70 e6 be 58 7f 41 3d 65 3f a5 be
       0.43936205 -0.45007727 0.047240585 -0.3227493
000020 5a d6 06 be c1 4e 15 be 19 46 2e 3d df d8 05 3f
       -0.13167706 -0.14580823 0.04254732 0.52284044
000030 e1 93 93 3e 78 c9 f1 b8 02 39 d3 3e 7c 19 96 be
       0.2882376 -0.00011529302 0.4125443 -0.29316318
000040 5c 3a 98 3e 7e b1 4f bd bb 11 cc bd 01 1d 85 3d
       0.29732025 -0.05070638 -0.09964319 0.06499673
000050 72 f3 e3 be 35 0c 88 3d 14 a2 49 3e f2 bd fc 3e
       -0.44521672 0.06642953 0.19690734 0.49363667
000060 be 41 36 be 56 ec 51 3e 27 82 13 3f 5d 88 7f be
       -0.17798516 0.20500311 0.5762047 -0.24954362
000070 2b 59 0c 3f 41 cb 91 be 10 95 82 3e 0c 05 67 3e
       0.5482356 -0.28475383 0.2550435 0.22560519

fc2.weight f4 [64, 32]
000000 ec f6 54 3d 7c 13 0d 3e e9 0e 96 bd 89 3a 34 3d
       0.051993296 0.13776964 -0.07327063 0.044001136
000010 d9 b6 fa 3a 47 42 07 be f9 5c 24 bd f9 b5 ec bd
       0.0019127979 -0.13208877 -0.040127728 -0.11558146
000020 9e d3 a3 3d a5 ef 5e 3c 7d c2 78 3c 75 4c 62 bd
       0.07999347 0.01360694 0.015183088 -0.055248696
000030 43 c5 8b ba b1 fe 6b bd 16 7f 51 3d 55 8a 32 3e
       -0.0010663647 -0.05761594 0.05114659 0.17435582
000040 50 e8 ca 3c 7e e7 a3 bd 53 09 e2 bd b3 4e 35 3c
       0.024768978 -0.08003138 -0.11036935 0.011066127
000050 7d 1f 07 be 27 6f 05 be fb e8 ef bd b1 67 7b bd
       -0.13195606 -0.13030683 -0.117143594 -0.061378185
000060 5d d4 7f 3c 51 cc f5 3d 5a 81 91 3d 80 80 0d 3e
       0.015614596 0.12001861 0.0710475 0.1381855
000070 e2 80 e6 bd 67 8b 4c 3c 14 d6 1d be e0 ee ca 3d
       -0.11255051 0.012484408 -0.15413696 0.09908843
000080 85 83 22 3d d2 f8 31 3e be ef fb bd 38 7e 0e 3e
       0.039676208 0.17380074 -0.123015866 0.13915336
000090 40 9e 1b 3e 41 94 12 3e 5a 61 c4 3c de 98 24 3e
       0.15197086 0.14314367 0.023972202 0.16073939
0000a0 ff a4 f5 3d 0a 83 09 3e 34 c3 0e bc 49 75 08 be
       0.11994361 0.13428894 -0.008713532 -0.1332599
0000b0 46 fb fa 39 74 0b 12 3d 3c 47 f3 bd b7 30 d5 bd
       0.0004787093 0.035655454 -0.11878821 -0.10409682
0000c0 b1 da 2f be ce d2 7d bd 5b 2c 20 3e b3 d8 04 3d
       -0.17173268 -0.061968617 0.1564192 0.032433223
0000d0 28 e8 30 bc c3 0e 1f 3c 70 1e e7 3d d0 db 21 be
       -0.010797538 0.009708109 0.11285102 -0.15806508
0000e0 57 3c 09 be b8 f8 67 bd d5 46 d1 bd f1 bb ba 3d
       -0.13401924 -0.05663368 -0.10218588 0.09117878
0000f0 aa bd 02 3e 2f a1 2f be 4a 3a 19 be 61 ac 30 be
       0.12767664 -0.1715133 -0.14963642 -0.17253257
000100 51 9b 87 3d 19 34 13 3e 6f 65 0a be c5 09 a5 bd
       0.06621421 0.14375342 -0.13515256 -0.08058504
000110 10 e8 6f 3d e5 c8 e6 bd 55 d3 1c 3e 9a fc 23 3d
       0.05857092 -0.11268786 0.15314992 0.04003582
000120 2a cf 3e bd ef f5 0a 3c 81 8d 55 3d 4a 25 86 bd
       -0.046584286 0.008481487 0.0521369 -0.06550081
000130 b8 d5 09 be 37 9b e0 ba 50 24 6c 39 fa 52 9a 3b
       -0.13460433 -0.0017136101 0.00022520241 0.0047095986
000140 6a a7 eb bc 65 5f e2 3d 21 f8 46 bd 04 53 a4 bc
       -0.028766353 0.11053351 -0.048576478 -0.020059116
000150 5d 7f 9a 3d ae 7b de bd bc 0c 36 3d 0c 52 2c bd
       0.07543824 -0.10863434 0.04444574 -0.042070433
000160 4f 28 b3 3d 21 89 ca bd 21 ac 6a 3b ff 58 a4 3c
       0.08747923 -0.098894365 0.0035808163 0.020061968
000170 20 a5 10 be 38 b1 06 be 8a a2 8f 3d 8c dc 54 bd
       -0.1412549 -0.13153541 0.07013424 -0.051968142
000180 62 e6 d0 3d 11 4e 33 be 94 f5 b8 bd 0e 1f 18 be
       0.10200192 -0.17510249 -0.09031215 -0.14855596
000190 eb 95 8a 3d e8 1e a4 bb c6 2e 13 bd 02 23 f0 bc
       0.06766876 -0.005008567 -0.03593328 -0.029313568
0001a0 84 54 10 be c6 70 42 3d 4a 1b c6 3a 3b f9 ff bd
       -0.1409474 0.04747083 0.0015114334 -0.12498709
0001b0 4d 24 82 3d c6 89 bb bb 76 23 32 be 78 bf c2 3d
       0.0635458 -0.005723211 -0.1739634 0.09509176
0001c0 83 b8 bb 3d a9 3a 14 bd 9b 48 f6 bd ed c2 91 3b
       0.09166052 -0.036188755 -0.12025567 0.004448286
0001d0 1f 45 06 3e b0 ac 22 3e d9 b3 0b be d2 a7 a9 bd
       0.13112305 0.15886188 -0.13642825 -0.08283962
0001e0 63 f3 09 3e 9e 0a ab 3d 9d f8 d9 3d 73 4a b8 bd
       0.13471751 0.083516344 0.10643122 -0.08998575
0001f0 fe ec 18 3e 7e 8c 17 be c0 52 3c bc 4e 7a 52 3b
       0.14934155 -0.14799687 -0.0114943385 0.0032116356
000200 83 18 dd 3c 1c 5d 0b be 9f 50 23 3e 26 0c 32 3e
       0.026989227 -0.13609737 0.15948723 0.17387447
000210 60 8b ff bd ea 4b 8e 3b e3 47 bb bd 81 50 30 3e
       -0.124777555 0.0043425458 -0.09144571 0.1721821
000220 95 5a c4 3d 9e b4 da 3d d0 89 74 3d b8 85 74 bc
       0.0958759 0.10678981 0.05970174 -0.014924459
000230 30 51 c6 3d 98 e9 8f 39 46 27 7d bd 6c ec ba 3d
       0.09683454 0.00027449126 -0.061805032 0.09127125
000240 b4 2d 6e 3d f9 a7 30 bd 73 8b 51 bd 84 5b 1d be
       0.058149055 -0.04312894 -0.05115838 -0.15366942
000250 dc 30 3b bd 3b 28 98 bd 73 e5 ca bd 8a c1 20 be
       -0.045700893 -0.07429548 -0.09907045 -0.1569883
000260 4b 23 0b 3e 4c 8f 24 be 76 74 36 3e c4 e5 bd bd
       0.13587682 -0.16070288 0.17817864 -0.0927234
000270 c2 75 85 bc 54 67 16 3e a8 01 64 3d 8e f5 43 bd
       -0.016291503 0.14687854 0.055665642 -0.0478416
000280 4d 51 14 be c6 d5 8f bd 88 1e 0f 3e ec 98 8c bd
       -0.14484139 -0.07023196 0.1397649 -0.06865105
000290 16 2b 14 3e 7f ed e7 bc e3 8c cf bc d5 2e 8b 3d
       0.14469561 -0.02831149 -0.025335735 0.06796042
0002a0 29 aa e8 bc 6e 7e 5a bb d7 d5 f6 3d e9 f5 6b 3d
       -0.028401451 -0.0033339518 0.120525055 0.057607565
0002b0 85 aa 23 bc 3a 50 88 3d 87 e4 1b 3e 24 7f 36 3d
       -0.0099893855 0.06655927 0.15223895 0.044554844
0002c0 38 99 5a bd fe 13 64 3d 32 c8 59 bc e0 3a 0f be
       -0.053368777 0.05568313 -0.013292359 -0.13987303
0002d0 ac bf 90 bd 87 33 a4 3d 5a 08 56 3b 0d 98 82 3d
       -0.070678085 0.080176406 0.0032658787 0.06376658
0002e0 70 2b d2 bd 10 c7 29 3e eb ce 9a bd b8 64 0f 3d
       -0.10262191 0.16579843 -0.07558998 0.035008162
0002f0 16 b1 b6 bd a3 79 b3 bd 63 e1 9c 3d db f7 4d bd
       -0.08920495 -0.08763435 0.076601766 -0.0502852
000300 36 d5 ea bd 6d df 90 bd 90 4f 01 3e 22 16 df 3d
       -0.11466448 -0.07073865 0.12628007 0.108928934
000310 48 c1 d6 3d 78 f9 17 be 4f 99 a4 3d d9 03 3f 3d
       0.10486084 -0.14841259 0.08037054 0.04663453
000320 71 e2 f8 bd e3 c8 ec 3b b5 5a 0d 3d 3b ce c0 bd
       -0.12152565 0.007226096 0.034510333 -0.09414335
000330 4a 53 9e bd fc 6f 16 3e 1c 75 8b bc 3d 7f 56 3a
       -0.0773073 0.14691156 -0.017023616 0.0008182412
000340 f7 4c e1 bd 09 3e d3 bd 04 69 29 3e f0 78 8c 3d
       -0.11001008 -0.10314567 0.16543967 0.068590045
000350 ae 2f d8 bc b2 c7 d6 3d ce 72 b0 bd 00 44 1d be
       -0.026389923 0.104873076 -0.08615647 -0.15357971
000360 1e 94 36 be 83 04 96 3d 80 a6 92 bd b3 4f de 3d
       -0.1782994 0.07325079 -0.071606636 0.10855045
000370 92 06 18 3e 5e b9 64 3d c7 9a 18 3e 91 22 1e bd
       0.14846256 0.055840842 0.14902793 -0.038607184
000380 66 f2 1e 3e 71 c7 aa bd aa 60 ae bc e7 ef f4 3d
       0.15522155 -0.08338822 -0.021286327 0.1195982
000390 95 35 b7 bd d0 f4 0c 3e 69 7b 39 3d d4 21 ca ba
       -0.08945767 0.13765264 0.04528371 -0.0015421459
0003a0 6a 4c 1c 3e f2 02 05 3e b3 11 9a bd 51 43 8c 3c
       0.15263525 0.12989405 -0.07522907 0.017121943
0003b0 89 93 ba 3c f2 ab 15 3e 6c e6 cb 3d c2 52 15 3e
       0.022775428 0.14616373 0.09956059 0.14582351
0003c0 5e 4d d7 3d 09 cb 1d be 00 45 f3 3d 93 2c 4b bd
       0.105128035 -0.15409483 0.11878395 -0.049603056
0003d0 01 3d 0e 3e b3 e5 e8 3d 4f e0 cf bd b3 93 ac bc
       0.13890459 0.11371937 -0.10150205 -0.021066522
0003e0 16 56 ed 3c 71 15 53 3d f9 61 27 be 22 17 a9 3b
       0.028971713 0.05153412 -0.16345967 0.0051602283
0003f0 50 34 c0 3d 16 62 cc 3d 6d 40 b4 3d 26 2a e5 3c
       0.09384978 0.09979646 0.08801351 0.0279742

fc2.bias f4 [64]
000000 63 43 3c 3d e5 59 27 be 9f 98 05 3e 78 ed e5 3d
       0.045962702 -0.16342886 0.13046502 0.11226934
000010 45 bc 29 be 4a cc 67 b9 1b a6 61 3d 4f 9c 04 3c
       -0.16575725 -0.0002210598 0.05509005 0.0080939075
000020 09 c9 20 be 43 79 26 3e 37 c6 b6 bd bc 84 56 3d
       -0.15701689 0.16257195 -0.08924525 0.05237268
000030 ea b0 e7 3d 21 6d 28 be f5 f0 61 bd bb 3f a1 bd
       0.113130406 -0.1644788 -0.055161435 -0.07873484
000040 a5 17 34 3e df 40 8d bd d2 c2 19 be 7d cc 23 be
       0.17587145 -0.06897139 -0.15015724 -0.15995975
000050 11 12 aa bc 3b ab 1f 3e a7 71 0f be ca cc da bd
       -0.020760568 0.15592663 -0.14008199 -0.10683592
000060 37 d0 20 be 8f 86 2c 3e 09 6a c3 3d 41 4f 97 3d
       -0.15704428 0.16848205 0.09541709 0.07388163
000070 84 e0 0e 3e 9a bf 4f 3d e4 2c ec 3d b6 16 1c bd
       0.13952833 0.050719835 0.11532 -0.038107596
000080 7c 5d f8 3c 8c 78 cb bd 96 c4 22 bd e6 dc 8e 3c
       0.030318014 -0.09935102 -0.03973826 0.017439317
000090 d2 84 a5 bd 47 6a b7 bd c4 41 88 bd eb ec dc 3d
       -0.08081974 -0.08955818 -0.06653169 0.10787376
0000a0 be 3a b0 3d 27 55 69 bd 2d e7 5e 3c 7b 8a 9b bd
       0.08604954 -0.056965973 0.013604921 -0.075947724
0000b0 66 3e f9 3d 05 6e c8 bd 53 b1 d3 bd ae 53 df 3d
       0.12170105 -0.097866096 -0.10336556 0.109046325
0000c0 29 e5 0b be 6e b9 73 bd a9 a3 9a 3d 34 28 4f bd
       -0.13661636 -0.05950301 0.07550747 -0.05057545
0000d0 38 b4 8c bd 16 06 0c 3e a6 af e9 bc ab eb 28 3e
       -0.068703115 0.13674197 -0.028526139 0.1649615
0000e0 28 a7 47 bd 6a 0e c1 bd b3 62 0c 3e cf 9d 03 be
       -0.048743397 -0.094265774 0.13709526 -0.12853168
0000f0 6c 87 06 be cd b5 be 3d 9b 49 ee bd 0a 69 65 3d
       -0.13137597 0.093120195 -0.11635133 0.056008376

fc3.weight f4 [64, 64]
000000 26 e9 b1 bd cf d1 fc 3d 10 ca bf 3c 93 f2 d1 3d
       -0.08687048 0.12344705 0.02341178 0.102513455
000010 dc 12 f4 bd 3d ba f6 3c 39 ee 14 bc 5e 7a 7b 3d
       -0.1191766 0.030118102 -0.00909 0.061395995
000020 4c 0a 15 bd 44 95 fe 3d 48 87 f6 3d e4 ab 75 3d
       -0.036386773 0.12430814 0.120375216 0.05997838
000030 40 93 97 bd 32 12 be 3d 22 e9 f8 bd 9a 08 89 3d
       -0.074011326 0.09280814 -0.121538416 0.06691094
000040 9b 92 72 3d c9 1d 89 3d a4 ad 12 3d bc 77 d2 3d
       0.059221845 0.06695134 0.035810128 0.10276744
000050 b2 04 8d bd e3 ab b5 3d e6 5f 4d 3d c0 d5 56 3b
       -0.06885661 0.088706754 0.050140284 0.0032781214
000060 15 88 4f 3d 83 81 6d bc 8b 33 c9 3d a8 dd 39 ba
       0.050666887 -0.01449621 0.09824284 -0.00070902193
000070 51 f8 88 3d e0 15 de 3d d8 25 2b 3d ec 6b 82 3b
       0.066879876 0.10844016 0.041784137 0.0039801504
000080 75 6a 18 bc e4 99 d0 bd a4 fd c7 bd 64 d2 2a 3d
       -0.009302725 -0.10185602 -0.09765175 0.04170455
000090 80 52 3e 3c b0 9d 04 3d 0e 3f e7 bd 24 6d 8e 3d
       0.011616349 0.032376945 -0.112913236 0.06954411
0000a0 40 d7 53 bc 44 62 47 3d 6a 2e 8d bd c5 ac c2 3c
       -0.012929738 0.048677698 -0.068936184 0.023764024
0000b0 3a e4 82 3d a8 5f bf bd 28 89 60 3c 44 42 31 bd
       0.06391187 -0.09344417 0.013704576 -0.043276086
0000c0 0f 10 d6 3d 21 21 c8 bc 89 13 9b bd 50 05 a4 bd
       0.10452282 -0.02442986 -0.075720854 -0.08008826
0000d0 46 b5 62 bc 48 8c 68 3d 37 86 35 3d 62 93 e9 3d
       -0.013837164 0.056774408 0.04431745 0.11405064
0000e0 02 39 c6 3d 20 d4 a8 3c 26 dc 04 3d be a5 52 bd
       0.09678842 0.020608962 0.032436512 -0.051427595
0000f0 68 a2 33 3d d5 78 c4 3d 00 86 27 bb e1 52 c1 3c
       0.043856055 0.095933594 -0.0025562048 0.02359909
000100 02 6e d2 bd 74 84 8b 3d ae 37 d8 3d 34 50 e6 3d
       -0.102748886 0.06812373 0.10557495 0.11245766
000110 bf 0e 4e 3d ee 4f 51 bd d6 46 43 3b 1f da 64 bd
       0.05030703 -0.051101618 0.002979686 -0.05587208
000120 f8 37 74 bd cf ea e6 3d 40 41 b8 3b d8 d1 b3 bd
       -0.05962369 0.11275255 0.005623013 -0.08780259
000130 48 d9 b1 bc 36 49 67 3d b8 54 a3 bc 7a e8 a8 3d
       -0.021710053 0.056466304 -0.019937858 0.082474664
000140 e5 00 82 3d 24 92 f5 bd fc 06 26 bd b0 31 cb 3c
       0.06347827 -0.11990765 -0.040534005 0.024803966
000150 e8 b6 f1 bc fa d0 a6 3d 75 ca 5a 3d 8c 14 ab bd
       -0.029506162 0.08145328 0.053415734 -0.083535284
000160 34 04 8b 3c ad 7f 98 bd e6 29 d4 bd e2 cf f4 bd
       0.016969778 -0.07446227 -0.10359554 -0.11953713
000170 eb 6b 89 bb 08 d1 03 3d 26 b5 24 bd ba 65 d2 bc
       -0.004193773 0.03218177 -0.04021182 -0.025683273
000180 39 b0 d8 3d 26 36 f7 3d 10 77 a3 bc 84 97 1e bd
       0.10580487 0.12070875 -0.019954234 -0.038718715
000190 f8 b9 ef 3d b0 e1 60 bc 84 29 f5 3d 56 d6 9a 3d
       0.117053926 -0.013725683 0.11970809 0.075604126
0001a0 40 4e 70 3d 00 d6 16 ba 4c a7 58 3d 30 75 be bb
       0.058668375 -0.00057539344 0.05289392 -0.0058123097
0001b0 d0 dd c9 3d d8 13 af 3c 8f 13 bb 3d 04 1d b9 bd
       0.098567605 0.021371767 0.0913459 -0.090387374
0001c0 0f 62 ad 3d ea bc 6c 3d 52 ff b0 bd 20 7e 6e 3d
       0.08465969 0.05779735 -0.086424485 0.05822575
0001d0 e8 42 f9 3c b0 2f 69 bd f2 73 d9 bd 3e fb 54 3c
       0.030427411 -0.056930244 -0.10617818 0.012999354
0001e0 b0 d1 39 3c 26 33 80 bd d9 28 c4 bd 0f 46 44 bd
       0.011341497 -0.06259756 -0.095781036 -0.047918376
0001f0 98 74 e9 3c a9 13 be 3d 62 98 bb 3d 27 9a 6e bd
       0.028497979 0.092810936 0.09159924 -0.05825248
000200 e6 2d f5 3d 14 e6 8f bd 4c 13 ed bd 3f 3a dc bd
       0.11971645 -0.07026306 -0.11575946 -0.10753297
000210 dd 90 25 3d 76 6b 8a bd e4 e7 8f 3d b7 41 ab bd
       0.040421356 -0.06758778 0.070266515 -0.083621435
000220 a8 43 86 bc b8 b5 ee bd 10 0b 73 3d 00 ec 52 bc
       -0.016389683 -0.11655754 0.059336722 -0.01287365
000230 33 59 90 3d 04 d8 cb bd 4f c0 89 3c 04 1a de 3d
       0.070482634 -0.09953311 0.016815333 0.10844806
000240 3b 0f 35 3c 88 69 96 bd 1e e7 90 bd 36 d5 e4 bd
       0.0110509945 -0.07344347 -0.07075332 -0.11173479
000250 58 f4 b0 3c 0e 51 a8 3d dd 8b 30 3d 8c f8 30 3d
       0.021600887 0.08218585 0.043102134 0.043205783
000260 44 f1 be bd 0f 55 56 3a 38 ab 70 bd 99 4f f0 bd
       -0.093233615 0.0008176127 -0.058757037 -0.11733932
000270 e8 50 55 3d d9 7f fc 3d 02 06 9e bb cc 2c df 3d
       0.05207911 0.123290725 -0.0048224935 0.10897216
000280 af 10 8e 3d e0 dd 36 bd d8 de ba bc b0 5c d6 bd
       0.06936776 -0.04464519 -0.022811338 -0.104668975
000290 1e 05 b3 bd 79 f1 cf bd 00 56 ef bb 23 8c 25 3d
       -0.087412104 -0.10153479 -0.007303953 0.040416848
0002a0 92 b1 b7 3d 40 1d 45 3c d4 18 84 3d 50 4e ef 3d
       0.08969416 0.0120308995 0.06450048 0.11684859
0002b0 4c 71 f6 3d 64 b1 91 3d 68 1e 8f 3d c4 31 83 3d
       0.120333284 0.07113913 0.069882214 0.064059764
0002c0 72 a1 86 3a c1 30 82 bd 12 19 a4 bd fc ce a6 bd
       0.0010271503 -0.06356955 -0.08012594 -0.08144948
0002d0 eb 77 01 3e c0 31 70 3d 60 54 e9 bc a6 40 51 bd
       0.12643401 0.058641195 -0.028482616 -0.051087044
0002e0 ae 1b 88 3d b0 be 82 bc a0 7c fb bd 15 81 e9 3d
       0.066459045 -0.015960068 -0.1227963 0.114015736
0002f0 51 14 9e 3c 60 89 33 bd 58 a7 14 3d 7e db 26 3c
       0.019296797 -0.043832183 0.036292404 0.010184167
000300 20 af 70 bd 78 36 38 3d 78 b8 9a 3d ba 0c e9 bb
       -0.058760762 0.04497382 0.07554716 -0.007112113
000310 68 97 15 bd 50 64 fa 3c 93 d0 85 bd d6 62 e7 3d
       -0.036521345 0.03056541 -0.06533923 0.11298148
000320 84 87 70 3d 85 01 65 bd c4 de 3d bd 80 21 f5 3d
       0.058722988 -0.055909652 -0.046355024 0.1196928
000330 a8 31 f9 3d 43 ba 27 3d 48 a8 e4 bd 98 e7 c1 bc
       0.12167674 0.040949117 -0.111649096 -0.023670003
000340 d1 5d 9b 3c e2 e2 c3 3d ea 3f dd 3d e8 92 08 3d
       0.018965634 0.09564759 0.10803206 0.033343226
000350 3c 4b f7 3d 6a f3 e0 3d e4 ab 96 3d 58 b0 b0 3d
       0.12074897 0.109839275 0.07357004 0.08627385
000360 14 ee b4 bd 7a 43 06 3d 01 d8 56 bd 0a b4 b9 3d
       -0.08834472 0.032779194 -0.05245209 0.09067543
000370 52 86 f8 bd 49 00 de bc 7e 25 9e bd a4 07 2a 3d
       -0.121349946 -0.027099745 -0.07721995 0.041511193
000380 1d 75 8f 3d 70 42 84 3d 7e d6 fb 3d af 30 b0 bd
       0.070047595 0.064579844 0.122967705 -0.08603036
000390 a0 2f 6b 3c a4 ef 2f bd 80 ad 4d 3d d9 3f b2 bb
       0.014354616 -0.04295315 0.05021429 -0.00543974
0003a0 64 6a 6c bd 86 06 8a bd e3 c3 a1 3c 96 ed 81 bd
       -0.05771865 -0.067395255 0.019746726 -0.06344144
0003b0 bc b1 b9 bd a0 0d ba 3d 32 ec c2 bd 1c e7 ee bd
       -0.09067103 0.0908463 -0.09517707 -0.11665174
0003c0 94 3f d7 bd 84 3a 9c bd 81 65 ec bd 02 a7 95 3a
       -0.105101734 -0.076283485 -0.11542798 0.001141757
0003d0 dd 63 a2 bd 30 07 1b bc df 03 d3 bd 4a 69 9c 3b
       -0.07929204 -0.009462163 -0.10303473 0.0047732936
0003e0 ec 39 93 bd 60 89 3d 3d 22 28 f9 3d 88 1d 7d bd
       -0.07188782 0.04627359 0.12165858 -0.06179574
0003f0 f6 bb d2 bc ad 77 eb 3d f2 6a 37 3d 0e e4 9a bd
       -0.025724392 0.11497436 0.044779725 -0.07563029

fc3.bias f4 [64]
000000 8f 6c a2 bd 57 df 45 bd 6a c3 8b 3d 9a c8 94 bc
       -0.07930862 -0.048308697 0.06824382 -0.01816206
000010 23 7a 9e 3c 95 5e e1 bd 82 18 20 3b 60 87 b8 3d
       0.019345349 -0.11004368 0.002442867 0.09010196
000020 3f 85 11 bc 7d a2 c5 3d 59 c1 c4 3c 1d ac 9e 3c
       -0.008881866 0.09650133 0.024017977 0.01936918
000030 d6 e7 a3 bd 60 25 8a bc 2f f2 a6 bc d0 bf 4a 3d
       -0.080032036 -0.016863525 -0.020379154 0.049499333
000040 5a 99 33 bd 03 0f ef 3d 52 6a ae 3d c1 3b 64 bd
       -0.04384742 0.11672785 0.08516373 -0.05572105
000050 77 87 61 3c f0 ae 36 3d 0f bc 24 3d 68 3c 7c 3d
       0.0137652075 0.044600427 0.04021841 0.061581045
000060 98 da ec bc 9e cc 8b bc b1 b7 67 3d 18 2e cf 3c
       -0.028912827 -0.017065343 0.056571666 0.025290534
000070 8e ae a1 bd 14 41 ea bd dd d0 cf bd 1e b9 fc bd
       -0.07894622 -0.11438194 -0.101472594 -0.12339996
000080 94 ee f4 bd ff dd 08 bd 61 ec 91 3d 83 01 b2 3d
       -0.11959568 -0.033414837 0.07125164 0.086916946
000090 c0 8a 47 3d 71 42 51 bb 3d 1e 35 3d b6 58 4e 3d
       0.048716307 -0.0031930471 0.04421829 0.05037757
0000a0 91 e6 a9 bd 6e a3 40 bd dd d0 00 3e a8 ec 4c bd
       -0.0829593 -0.04703086 0.12579675 -0.05003038
0000b0 1a f0 9c 3d ce e2 e7 bd 96 31 e3 bd 7a 48 6f 3d
       0.07662983 -0.113225564 -0.11093442 0.05841873
0000c0 04 6b 99 bd 16 3c 77 3c e8 f7 fb bc b4 59 ed bd
       -0.07491115 0.015090009 -0.03075786 -0.11589375
0000d0 75 b7 da 3d 7f dc d2 bc c6 d2 0c 3c de bd 7c 3d
       0.10679523 -0.025739906 0.008595174 0.06170451
0000e0 3d b5 46 3d 15 b1 3e 3c 9e e3 ae 3d c4 5c 02 bd
       0.048512686 0.011638899 0.08539508 -0.03182675
0000f0 15 07 b5 3d 12 a2 7f bd 99 4c 00 3d 4f d5 53 bd
       0.088392414 -0.06241042 0.03132305 -0.0517171

classifier.0.weight f4 [32, 64]
000000 1d 40 65 3d f9 26 40 3d 81 41 ca bd 81 fe e3 bd
       0.055969346 0.046912167 -0.09875775 -0.11132527
000010 41 ae 01 3d 78 75 1c 3d 6a 2c a7 bd 53 66 07 bd
       0.031660322 0.038197964 -0.08162768 -0.03305657
000020 21 45 b9 3d 5c 67 fc bd e1 30 bc bd bc 79 a1 3d
       0.090463884 -0.12324402 -0.091890104 0.07884547
000030 ab 0d fc bd 1c 7f 84 bd 5c 59 83 bd b8 04 94 3d
       -0.123072945 -0.06469557 -0.06413528 0.072274625
000040 3a 4c ca 3d a9 fb ae 3d 7f 90 b7 bd 60 f1 75 bc
       0.0987782 0.08544094 -0.08963107 -0.015011162
000050 6b ac 90 3d 55 cd 32 3c 6a e4 37 bd 4b 95 54 bc
       0.07064136 0.010913213 -0.044895567 -0.012975047
000060 00 ec 31 39 ee 1a b7 bd 9d 80 f8 bd 40 cd 72 37
       0.00016967952 -0.08940683 -0.12133906 1.44721125e-05
000070 f1 08 46 3d f0 d7 e6 3d 98 b0 24 bd d8 84 55 bd
       0.04834837 0.112716556 -0.040207475 -0.052128643
000080 78 82 ec 3d 3b e4 ac bd 6c fe c2 bc 18 7a 34 3d
       0.115483224 -0.08441969 -0.023802958 0.04406175
000090 54 a7 5b bd 74 cb d8 bb 6a b7 88 bc 6a 00 aa 3b
       -0.053626373 -0.0066160504 -0.016689021 0.0051880376
0000a0 79 18 8b 3d a1 2a c7 bd 86 d3 66 3d e8 bc fc 3d
       0.06791777 -0.09724928 0.05635407 0.123407185
0000b0 4e 99 96 bd ac e0 87 bd f8 1c 22 bd dc a5 fb bd
       -0.07353459 -0.0663465 -0.039578408 -0.122874945
0000c0 88 c5 83 bd 29 09 fb bc 30 19 03 3d fc 68 ac 3d
       -0.064341605 -0.030644016 0.032006443 0.08418462
0000d0 cb cc 84 bd 74 be 7f 3d 99 81 82 bd 53 38 c9 3c
       -0.06484374 0.06243749 -0.06372375 0.02456299
0000e0 e1 15 ec bc 24 79 7f bd d2 63 d9 3d de cf cc bd
       -0.028819026 -0.062371388 0.10614742 -0.10000585
0000f0 30 72 e4 3d c8 ac a5 bd e8 55 83 bd ed 5b 21 bc
       0.11154592 -0.08089596 -0.0641287 -0.009848577
000100 2a bf af bd e8 5c 40 3d 50 91 03 3c e0 cd 86 bc
       -0.085813835 0.046963602 0.008030251 -0.01645559
000110 44 17 b0 3d 00 36 31 bd e0 b7 a1 3d 74 48 6d bd
       0.085981876 -0.04326439 0.078963995 -0.057930425
000120 d0 7e d6 3c 40 01 1a bd b0 85 5d bd 14 14 c3 3d
       0.026183516 -0.03759885 -0.054082572 0.09525314
000130 fc 6e 0d bd f6 63 b5 3d 82 ce 95 3d 7e 61 b1 3d
       -0.03452967 0.08856957 0.07314779 0.08661173
000140 ec 5d d6 bd c0 f3 e0 bc 02 61 97 3d 8c f7 7c 3d
       -0.10467133 -0.027459979 0.0739155 0.061759517
000150 ec 07 da 3d 40 bf 31 bb 9c 0a ed 3d a2 95 e9 3d
       0.10646042 -0.002712205 0.11574289 0.11405493
000160 b4 6c a9 3d ee 62 ee 3d 00 bc fd 3a 46 0f a1 bd
       0.082726866 0.11639963 0.0019358397 -0.07864241
000170 58 3c 52 bd e4 3e 79 bd d8 b9 49 3d 80 2b 09 bb
       -0.05132708 -0.060850993 0.0492495 -0.002093047
000180 68 8d d4 bc 9e cf c3 bd 56 9b c6 3d 78 34 06 3d
       -0.025946334 -0.09561084 0.09697597 0.03276488
000190 70 3b 33 3d bc 08 74 bd 48 cf df 3c 58 85 f6 bd
       0.043757856 -0.059578642 0.02732052 -0.12037152
0001a0 00 80 1f b9 24 2a 20 3d 68 e9 97 bd 84 b8 83 bd
       -0.00015211105 0.03910269 -0.074175656 -0.06431678
0001b0 08 d2 aa bc cc 81 15 bd 00 3f 74 bc f4 bd 7c 3d
       -0.020852104 -0.036500737 -0.0149075985 0.06170459
0001c0 96 e1 c0 bd 80 7f 89 3b a2 03 a5 3d 00 c7 b4 bc
       -0.09418027 0.0041961074 0.080573335 -0.022067547
0001d0 d4 bb 62 bd 14 61 b2 bd 82 23 84 bd 7c a5 77 bd
       -0.055354908 -0.087099224 -0.06452085 -0.060460553
0001e0 90 1d e3 3d 20 87 e8 3b e0 85 44 3c 08 95 d5 bc
       0.11089623 0.0070961863 0.011994809 -0.02607204
0001f0 18 fc bb bc ee 67 d8 3d 7e 19 98 bd 70 92 b9 3d
       -0.022947356 0.10566698 -0.07426737 0.09061134
000200 0c ba 8f 3d 66 8d b5 3d ac 2a 93 bd 04 00 1b 3d
       0.070179075 0.0886486 -0.071858734 0.03784181
000210 78 3b ff 3d b8 22 95 3d 22 6b c8 3d 00 0c b5 3a
       0.12462515 0.07282013 0.09786059 0.001381278
000220 38 a8 98 bc b4 bf cb bd 3a 0d ac 3d a6 37 d1 bd
       -0.0186349 -0.09948674 0.0840096 -0.10215692
000230 c0 04 3e bc 60 57 91 3b 64 5f 5d 3d 76 bd cb 3d
       -0.011597812 0.0044354647 0.05404605 0.09948246
000240 f4 fa 92 3d c0 e4 01 bd 18 a2 25 3d 88 30 00 bd
       0.07176772 -0.031712294 0.040437788 -0.031296283
000250 fe 0e ec 3d 28 6e 3b 3d c0 0f ce 3d 64 f6 c3 bd
       0.11526297 0.04575935 0.10061598 -0.0956848
000260 88 c4 a0 bc 80 fb 0c bb 08 41 ae 3c d6 a8 c9 3d
       -0.019624963 -0.002151221 0.021271244 0.09846656
000270 5e 3b f8 3d 1e f0 dd bd 20 44 c5 3b 00 f0 44 38
       0.121206984 -0.10836814 0.006020084 4.695356e-05
000280 94 d5 5e bd f8 eb e0 3d c6 34 b7 bd 60 71 13 bd
       -0.054402903 0.109825075 -0.089456126 -0.035996795
000290 98 b4 7b 3d 80 0e fb 3d a0 86 fb 3c fe ac b0 bd
       0.061451524 0.12258625 0.030703843 -0.08626746
0002a0 ae 0d a0 bd d8 15 24 3d 50 a3 e6 3c c0 0d 46 3b
       -0.07815109 0.040059894 0.028154045 0.0030220598
0002b0 5c 46 08 bd 96 13 c3 3d b0 37 ff bd 68 14 ec bd
       -0.033270225 0.0952522 -0.124617934 -0.1152733
0002c0 98 48 90 bd 94 4b 3f 3d 80 3b 7f 3c d8 e4 ec 3d
       -0.07045096 0.046702936 0.015578151 0.11567086
0002d0 e6 af 92 bd 12 36 90 3d 4c 14 a1 3d 44 d6 b9 bd
       -0.07162456 0.07041563 0.078651994 -0.09074071
0002e0 66 a4 ac bd 1a 5c 88 bd 00 0a 08 ba fe f5 87 bd
       -0.08429794 -0.06658192 -0.00051894784 -0.06638716
0002f0 ae 62 dd bd 60 b5 90 3d 1c ec 90 bd 48 bd b9 3d
       -0.10809837 0.070658445 -0.07076284 0.09069306
000300 5f 67 a4 bd fd 48 ed bd b1 38 c1 3b 27 22 c0 3d
       -0.08027529 -0.11586187 0.0058966507 0.09381514
000310 05 55 17 bd 71 71 29 bc 12 1a dc bb 8d 1b 8c 3d
       -0.036946315 -0.010341988 -0.006716975 0.068411924
000320 f1 07 5d 3d 4c c8 ea bd 9c a8 5f 3d ba 20 ee 3d
       0.05396265 -0.11463985 0.054604158 0.11627336
000330 52 4f bd bd fe 5f a3 3d 2c a2 c6 bd f5 2a 2f bc
       -0.09243645 0.079772934 -0.096989006 -0.010691394
000340 19 7d 7c 3d 75 d7 d7 3d 12 8e a8 bd d4 21 eb bd
       0.06164274 0.10539142 -0.08230223 -0.114810616
000350 78 aa 84 bd c7 9c f3 3d 12 a1 19 3d df 97 85 bd
       -0.06477827 0.11895137 0.037507124 -0.06523108
000360 9e d8 87 bd 87 96 76 bd d7 52 b8 bd d7 dc a6 bd
       -0.06633113 -0.060202148 -0.090001754 -0.081475906
000370 77 44 70 bd 96 b3 cc 3d 32 d5 5f bc e0 31 f6 3c
       -0.058659043 0.09995191 -0.01366167 0.03005308
000380 04 67 7f 3d 2d b8 ef 3c 65 58 88 bd 7a ec 9d bd
       0.062354103 0.029262627 -0.06657485 -0.0771112
000390 86 25 9a bd a0 cc e8 bc bc 00 cf bc 5d a2 6e 3d
       -0.07526688 -0.028417885 -0.025268905 0.05826031
0003a0 41 30 3f 3d 9a 27 89 3d 6c 3b 88 bd 10 85 f0 bd
       0.046676878 0.066970065 -0.06651959 -0.1174413
0003b0 56 47 14 3d c0 ab ed bd 3e 22 d1 3d ee 1d 2f bd
       0.036200844 -0.11605024 0.10211609 -0.042753153
0003c0 54 0b d8 3c 8f 61 1d 3d e4 3e 82 bd 7f 8c ae bd
       0.02637259 0.038423117 -0.06359652 -0.08522891
0003d0 88 48 ab 3d 1a 4c c8 3d 0a 11 6a 3c f6 04 cb 3d
       0.083634436 0.0978014 0.014286289 0.099130556
0003e0 2a 5a 69 3d 11 83 28 bc 97 20 4c bd c8 04 a2 bd
       0.056970753 -0.010285155 -0.049835768 -0.07911068
0003f0 45 e3 11 3d cc 1e 8e 3d 1c c4 c2 3d 9a 55 3e bc
       0.03561713 0.06939468 0.09510061 -0.011617089

classifier.0.bias f4 [32]
000000 8b 38 cd 3d 00 1d 9c 3c a0 48 9b bd 0a 65 b1 3d
       0.1002055 0.019056797 -0.075822115 0.0866185
000010 33 58 c0 3d 26 e7 ef bd a0 9e 32 bc 5c 89 69 bd
       0.09391823 -0.1171401 -0.010902077 -0.05701576
000020 a0 c9 d5 bb 1f ac 4b 3d 83 58 b6 3d 12 20 dd 3d
       -0.0065242797 0.049724694 0.08903601 0.107971326
000030 fe 64 b9 bd d4 52 43 3d d1 6d 7e 3c 70 20 18 3d
       -0.09052466 0.047686413 0.015529112 0.03714031
000040 ad ea a0 3c f0 33 15 bc c0 77 48 3c 92 86 a9 3d
       0.019643152 -0.009106621 0.012235582 0.082776204
000050 b2 06 db bd eb 9c d0 bc 34 56 28 bd a1 7b bc 3d
       -0.106946364 -0.02546545 -0.041097835 0.09203268
000060 06 31 29 bd e0 5d 4d bc f0 57 58 bd 65 8a f5 bd
       -0.041306518 -0.012534589 -0.05281824 -0.11989287
000070 72 22 a5 ba d6 0c ee 3d 80 f8 82 bc 25 2d 83 3d
       -0.0012598766 0.11623542 -0.015987635 0.06405095

classifier.2.weight f4 [3, 32]
000000 55 9c b4 bc ba 37 53 3d d6 aa fc bd 8d 4a 34 3e
       -0.022047201 0.051566817 -0.12337272 0.17606564
000010 8e e9 1d 3e c3 7d f3 bd 3a dc 25 be 7d 8d 17 be
       0.15421125 -0.118892215 -0.16197291 -0.14800067
000020 24 09 1d be 7e da 1f 3e 37 9e ed bc f6 e5 ca 3d
       -0.15335518 0.15610692 -0.029006107 0.09907143
000030 ed 2a fe 3d b8 d3 e0 3d 63 5f f6 3d 13 d2 33 3e
       0.12410531 0.10977882 0.12029912 0.17560606
000040 1d 69 89 bd d4 08 23 3e 0e 80 84 3d a8 fa 20 3e
       -0.06709502 0.15921336 0.06469737 0.15720618
000050 8c 84 5d 3c ff 20 41 ba 60 df 35 be 9b bf 2d be
       0.013520371 -0.00073672825 -0.17760992 -0.16967623
000060 a1 a9 0e be ee 7f 8d 3d 44 fa 71 bc ba 13 c9 3d
       -0.13931896 0.06909166 -0.014769141 0.09818216
000070 f7 9f ea 3d 7c 67 9f 3d e4 fe 80 3d 45 25 18 bd
       0.11456292 0.0778341 0.062986165 -0.037144918
000080 03 32 8f bd e4 e8 2c 3e 8f 99 49 3d 94 3b ca bd
       -0.06991961 0.16885716 0.04921871 -0.09874645
000090 4e b8 41 3c dc ab 0d 3b b4 a1 d7 3c cd b9 f0 3d
       0.011823727 0.0021617329 0.026322223 0.11754189
0000a0 99 c8 8b 3d c9 11 06 3e d2 78 dd 3d c3 1a 12 3e
       0.0682537 0.13092722 0.1081406 0.14268021
0000b0 d9 3e 9b bc b0 98 34 3e 10 1f c1 3d d3 51 05 be
       -0.018950867 0.1763637 0.09429753 -0.13019495
0000c0 62 c6 8d bb 63 b4 03 be f9 92 86 bd e4 ad 87 3d
       -0.0043266276 -0.12861781 -0.065710016 0.06624964
0000d0 f4 61 25 be 4d fb 35 be 78 fc eb 3d cf 31 79 bd
       -0.16150647 -0.17771645 0.11522764 -0.060838517
0000e0 58 33 0a be 8b 75 9f 3d 26 4c 14 be d7 37 1a 3e
       -0.13496149 0.077860914 -0.14482173 0.15060364
0000f0 ae cd 25 3e 3b b2 b8 bd c6 7d a7 bd 97 ff b5 bc
       0.16191742 -0.0901837 -0.08178286 -0.022216601
000100 0b 7a 05 3e 99 f2 de bd ce 09 8e bd 68 63 5b 3d
       0.13034837 -0.108861156 -0.06935464 0.053561598
000110 55 c4 30 3e 51 c3 e7 bd 4b a4 11 be 65 0e 1e be
       0.17262395 -0.113165505 -0.14222829 -0.15435179
000120 1e e2 14 3e 23 2f ea bd 4c a0 c1 bd f1 42 a3 3d
       0.14539382 -0.11434772 -0.09454402 0.079717524
000130 f9 22 71 bd 9e 75 04 3e c8 ed 16 be 5c 75 fe bd
       -0.058871243 0.12935492 -0.14739144 -0.12424728
000140 6d ff 1d 3e 6c f6 81 bd d5 1f 24 3e 2f 62 b8 3d
       0.15429468 -0.06345829 0.16027768 0.09003102
000150 ae 95 88 3c d7 34 e1 bd 00 1a 21 3e bc 86 33 bd
       0.016672935 -0.109964065 0.15732574 -0.043829665
000160 92 02 fa bd 56 71 1e 3b 78 d2 09 be 46 73 03 bd
       -0.122075215 0.002417644 -0.13459194 -0.032092355
000170 25 4e 9c bd 71 65 58 bd 1a 5f 79 bd 01 ca 15 3e
       -0.076320924 -0.052831117 -0.06088171 0.1462784

classifier.2.bias f4 [3]
000000 ea ec e6 3d f4 db 78 bd 1b 59 ba 3d
       0.112756565 -0.06075664 0.09099027
