outputs/robustness/mlp_experiment/20251117_121924/model.pth (torch, 37861 bytes, 10 tensors)

fc1.weight f4 [32, 3]
000000 02 7f 01 3f 86 f5 21 3f 9d a8 98 be 68 4e 1b 3f
       0.50584424 0.63265264 -0.29816142 0.60666513
000010 f0 59 f0 bd 82 a4 64 3e 8d 3c 88 be 80 32 ca 3e
       -0.11735904 0.2232838 -0.26608697 0.39491653
000020 22 c9 1b 3f 15 bb c2 be 65 e0 0d 3f df 8c c7 3c
       0.6085378 -0.38033357 0.55420524 0.024359165
000030 d3 79 01 3f 1d 17 01 3e f8 0c ae 3e 86 93 a6 bd
       0.50576514 0.12606473 0.3399427 -0.081336066
000040 85 48 15 3f 9c cc b6 bd 60 05 94 be 09 4f 41 3e
       0.5831378 -0.08925745 -0.2891035 0.18877806
000050 0f c3 ee be 31 90 fa bd b0 a3 a5 be ad 23 11 3f
       -0.46633193 -0.122345336 -0.32351446 0.5669506
000060 63 46 06 bf cd 13 6a be 51 5f bd be 72 af c6 be
       -0.5245115 -0.22859116 -0.36986783 -0.3880573
000070 0f 3c f7 bb 45 4a 40 bf 07 fd 16 3f 23 cc 01 bf
       -0.0075450013 -0.75113326 0.5897984 -0.5070211
000080 c6 68 11 3f 8f 42 41 3e ef 46 74 be 4a ca 07 3f
       0.56800497 0.18873046 -0.23855184 0.53043044
000090 da 53 27 3e 41 28 09 3f 61 80 31 bd b0 6b 66 be
       0.1634058 0.5357705 -0.043335322 -0.22502017
0000a0 b2 02 72 3e db f4 ba be cc 03 b3 3e 9f 46 18 3f
       0.2363384 -0.36514935 0.34963834 0.5948276
0000b0 03 3e 0a 3f 58 e3 99 be 05 a3 f7 3e 3b f8 56 3e
       0.5400087 -0.30056262 0.48366562 0.2099313
0000c0 03 ec 78 3e c8 34 a5 be 18 21 3b bf 3e f7 95 be
       0.24308781 -0.3226683 -0.7309737 -0.29290193
0000d0 38 74 f0 be 77 82 1b 3f 83 c7 68 3e 65 11 a1 3e
       -0.46963668 0.6074595 0.22732358 0.31458583
0000e0 c5 5e 0e 3e 68 a6 bf 3c 9d 28 ea 3e 1b 77 1c bf
       0.13903339 0.023394778 0.4573411 -0.6111924
0000f0 f4 15 e3 3d 97 fc 02 bf 0f 7b 69 3e 4a e1 98 be
       0.110881716 -0.5116667 0.2280085 -0.29859382
000100 6e 80 92 3e e9 db 15 be dd 65 ff 3e ed 92 7b be
       0.2861361 -0.1463467 0.49882403 -0.24567766
000110 be 11 05 bf 67 12 bd be 59 9a 18 3f 4c a5 25 3e
       -0.519802 -0.36928102 0.59610516 0.16176337
000120 a5 18 10 3f b3 d0 e8 be 25 12 42 bf 39 ed 07 bf
       0.56287605 -0.45471725 -0.75808936 -0.5309635
000130 31 39 bb be ea b4 b0 3e 8f 5d 5b 3e f5 e2 0f 3f
       -0.3656707 0.34513026 0.21422409 0.56205684
000140 74 08 ed be 92 bf c7 be 75 1c 94 3e 87 4f c3 be
       -0.46295512 -0.39013344 0.2892796 -0.38146612
000150 aa 87 dd 3e 33 bb f0 bd 0c 1e f6 3e 98 df 0b bf
       0.43267566 -0.117544554 0.480698 -0.5463805
000160 09 06 c0 be 1e f3 82 3e 1e ed 4d 3e 9f 4a 6e be
       -0.37504604 0.2557611 0.20109984 -0.23270653
000170 41 c2 ff 3e 40 c4 c8 3e 19 58 cd be a4 a4 a6 be
       0.4995289 0.39212227 -0.40106276 -0.32547486

fc1.bias f4 [32]
000000 e4 74 27 3f 14 a9 64 be da e8 73 be b0 ad 29 bf
       0.65412736 -0.22330123 -0.23819295 -0.6628065
000010 d6 8d b4 be fd aa 8a 3e 9d 8e 87 3d 39 c7 92 be
       -0.35264462 0.2708358 0.06618998 -0.2866762
000020 e4 3c 1b 3e 8f 30 7b be 22 e7 0e bf 3d ec 95 be
       0.15159947 -0.24530242 -0.5582143 -0.29281798
000030 e6 ef 08 bf 1f 31 80 be 64 b6 3a 3f eb cd 24 3e
       -0.53491056 -0.25037476 0.72934556 0.16094176
000040 ad b4 a3 3e ba a2 ec be 97 09 ba be 44 61 14 be
       0.31973782 -0.462179 -0.3633544 -0.14490229
000050 67 0b 7b 3e dc e0 dd be a9 5c 87 be 2c 85 ce be
       0.24516068 -0.43335617 -0.26437882 -0.40335977
000060 07 20 04 3d f7 46 5b be b8 95 35 3c ea f0 f9 be
       0.032257106 -0.2141379 0.011083059 -0.48816615
000070 2a 84 e0 be 9a 86 94 be 25 c3 1e be ec d4 10 bf
       -0.43850833 -0.29008943 -0.15504129 -0.56574893

fc2.weight f4 [64, 32]
000000 da bc 7e 3e 87 5c 3b b9 24 3c 4c 3e 02 6f 96 bc
       0.24876729 -0.00017868179 0.19944817 -0.01836348
000010 2a 51 be bd 1f c5 79 3e 62 77 13 bd af fd ba 39
       -0.092928246 0.24391602 -0.036002524 0.00035665694
000020 86 fe 36 be 23 4d 76 be 5a 84 c6 3d 57 92 39 3d
       -0.1787053 -0.24052863 0.09693213 0.045305576
000030 07 65 f5 3d 07 e5 6c be 8a d9 78 3e 9c bd 43 bd
       0.1198216 -0.23134242 0.24301735 -0.047788247
000040 b1 38 a2 bd 28 18 0c 3e f8 7f 1c 3e 0e a2 79 3e
       -0.07920969 0.1368109 0.15283191 0.24378225
000050 5c 29 e9 3d 9a de 73 be 53 fd d0 3c 8e a5 98 bd
       0.11384842 -0.23815385 0.02551142 -0.07453452
000060 a8 6c 82 bd fe 64 f0 bd 22 72 89 3e 7e 07 43 be
       -0.06368381 -0.11738013 0.2684489 -0.19045827
000070 a5 fb 2a 3e f1 77 a8 3d 6a a6 19 3e f0 6c f2 bd
       0.16697557 0.08226002 0.15004888 -0.118371844
000080 81 be 89 3e 9d dd d7 3c 67 c2 b3 3d 69 f8 87 be
       0.26903155 0.02635079 0.08777314 -0.2655671
000090 8f 19 bd 3d 9b 78 d8 3d 63 39 b8 bd a7 30 98 3e
       0.092333905 0.10569879 -0.08995321 0.2972462
0000a0 af b8 eb 3d 23 42 44 be d1 47 1b be f9 52 a6 bd
       0.11509835 -0.19165854 -0.15164115 -0.081212945
0000b0 2c d7 fd 3d c0 1c 66 be 98 ce 41 3d 74 c4 93 3d
       0.123945564 -0.22471905 0.047316164 0.07215205
0000c0 bb 14 02 be e5 58 31 3e 5f c5 35 3e 1c a1 08 be
       -0.1270322 0.17319067 0.17751072 -0.13342708
0000d0 d9 2e 1c 3e fc 24 4a bd 59 82 39 3d b1 91 71 bc
       0.15252246 -0.049351677 0.045290325 -0.014744208
0000e0 b1 ef 05 3e b4 90 5b 3e 00 54 16 3e 1f 72 21 be
       0.13079716 0.21441919 0.14680481 -0.1576619
0000f0 ea 3f 08 be d4 d5 04 3e 98 4e 65 bd 9d fc ff bd
       -0.13305631 0.12972194 -0.055983156 -0.12499354
000100 b7 32 16 3e 8f 58 5a 3e ac 10 2a 3d 25 eb 73 3d
       0.14667784 0.21322845 0.041519806 0.059550423
000110 0a f9 ab 3d 09 f1 ac 3c 6b 32 31 3e cd c0 c1 3c
       0.0839711 0.021111028 0.17304389 0.023651505
000120 41 d9 9b bd 16 02 00 3d ef 17 6a 3e 89 dc 33 3e
       -0.07609797 0.03125199 0.22860692 0.17564596
000130 91 48 9e 3d 07 26 8f 3c 3f 23 08 be e7 45 5c be
       0.07728685 0.017474188 -0.13294695 -0.2151104
000140 58 bf 37 3d 23 59 b1 bb 4a 55 4a 3e e5 31 62 3e
       0.044860214 -0.0054122373 0.19759098 0.22089346
000150 39 08 2c be 3d 0e ee bc 85 bf 64 3d a5 b5 6c 3e
       -0.16800012 -0.029059524 0.05584671 0.23116167
000160 a1 19 f8 3d 6a ef 60 bd 1a 56 2a 3e 3f 30 c5 3c
       0.12114263 -0.054915823 0.16634408 0.024070857
000170 d4 9f a4 bc b3 80 4a 3e 7b d1 80 3c 8f 4f 1b 3d
       -0.020095743 0.19775657 0.015724888 0.03791767
000180 1f 13 c8 bd f1 d4 5a 3e cc 25 3b 3e 18 8f 20 3d
       -0.09769272 0.21370293 0.18276137 0.039198965
000190 5a 71 53 bd 0a 29 76 be 9b c5 41 bd e7 2a 87 3e
       -0.051621772 -0.24039093 -0.047307592 0.2639992
0001a0 28 2a 1a 3e b6 4f 80 3e 3b 30 4f 3e 9d fb 53 3e
       0.15055144 0.25060815 0.20233242 0.20701452
0001b0 60 6a db bd 07 2b 6e be 58 6a 73 bd 35 78 31 be
       -0.10713649 -0.23258601 -0.05942759 -0.17331012
0001c0 b7 29 e4 3d a6 e8 8f bb a5 ea ba bd 6e 70 9a bd
       0.11140769 -0.0043917475 -0.09126786 -0.075409755
0001d0 e6 fa 9c 3d 11 98 37 be 54 9a ad bd 22 a1 2b 3d
       0.076650426 -0.17929102 -0.084767014 0.041901715
0001e0 b3 1d 99 bb 09 72 24 3e 21 65 ee bd 38 b7 1a be
       -0.00467273 0.16059126 -0.116403826 -0.15108955
0001f0 79 72 56 3d 98 11 15 bd 25 e8 f0 3d b2 a6 3b be
       0.052355263 -0.03639373 0.11763028 -0.18325308
000200 2d 12 62 3e 94 3c 5b be 59 d6 12 bc c4 12 a3 bd
       0.22077246 -0.21409827 -0.008962237 -0.07962564
000210 33 14 40 3d a5 90 0b bd 92 50 9f 3e 4c 90 76 bd
       0.046894263 -0.03407349 0.31116158 -0.060196206
000220 ef 1b 40 3e 0b 48 b3 3e 9b 8c 09 be 7e db c8 bd
       0.18760656 0.35015902 -0.13432543 -0.0980749
000230 48 21 f8 bd 08 7e 7e bd 5c 6f a1 3d 26 9d 2d be
       -0.12115723 -0.06213191 0.07882568 -0.16954479
000240 54 5e 74 3e 54 ff 35 3e 91 69 eb 3d 52 4e c5 3d
       0.23864108 0.17773181 0.114947446 0.09634079
000250 d2 99 8f be 88 34 f0 bd 9a 5b 31 3e b5 02 92 be
       -0.28047043 -0.117287695 0.173201 -0.2851769
000260 d2 6f 3f 3d 11 4c 38 be 1c 8d eb 3d ee f2 2d be
       0.0467375 -0.17997767 0.11501524 -0.16987202
000270 20 48 c6 bd bd 35 00 be 19 11 a0 be 54 8e 11 3e
       -0.096817255 -0.125205 -0.31263044 0.1421445
000280 53 8d 33 3e ac 6f 0d 3b 82 f5 6f 3d 90 f5 05 3d
       0.1753438 0.0021581454 0.058583744 0.03270489
000290 08 e3 d0 bd 40 40 0c be b4 5c 64 3e c8 95 1a 3d
       -0.10199553 -0.13696384 0.22300988 0.0377405
0002a0 2a eb e8 bb 14 9b 37 3e 90 f2 9c bd d4 b2 b7 3d
       -0.007108112 0.17930251 -0.076634526 0.08969656
0002b0 5a 6a c0 3d 05 67 d6 3d 2c bf bb bd ce be b0 bd
       0.09395285 0.10468868 -0.091673225 -0.08630143
0002c0 33 74 28 bb e8 ba 82 3e ad af 84 3c 24 22 3a 3e
       -0.0025704026 0.25533223 0.01619705 0.18177086
0002d0 38 1b 75 bd 31 14 11 3e ec f1 93 3e 49 cb 27 3e
       -0.05984041 0.14167859 0.2889551 0.16386141
0002e0 90 eb 44 bc 93 33 f9 3d a8 5f 87 3e 4d 63 28 3e
       -0.012019053 0.1216804 0.26440167 0.1644413
0002f0 3b dd 53 3e 98 f5 68 3e 74 b2 72 3d f4 94 d7 3d
       0.20689861 0.22749937 0.059252217 0.105264574
000300 2c a1 fb bd 3c 37 15 bd 5b 0f 06 3e fe 98 b9 3d
       -0.122866005 -0.03642963 0.13091795 0.09062384
000310 16 18 e5 bd 1d 28 11 be 72 67 f7 bd d9 a4 32 be
       -0.11186235 -0.14175458 -0.120802775 -0.17445697
000320 7c ae 0b be fc 0f 33 bd e6 54 f4 3d 38 65 f2 3c
       -0.1364078 -0.043716416 0.119302556 0.02958928
000330 2e af 09 be d2 37 11 be f2 1a b4 3d 50 a6 06 be
       -0.13445732 -0.1418145 0.08794202 -0.1314938
000340 c0 4e b2 bc 12 ac ad 3d 4d 8e a7 bd 18 e8 9d bc
       -0.021766067 0.084800854 -0.081814386 -0.01927571
000350 90 1b 7c bc fc 4d 2b bd b4 90 b7 bd 1a 5e 21 be
       -0.015387431 -0.04182242 -0.08963147 -0.15758553
000360 08 54 12 be 9b db c1 bd d7 d5 2e 3e b8 de ae bd
       -0.14289868 -0.094657145 0.17073761 -0.08538574
000370 7d 1e f3 bd 1c 83 2f 3d 2c 90 47 3d 52 5d c6 3d
       -0.118710496 0.042849645 0.048721477 0.09685768
000380 b6 44 02 3e 12 3e 25 3e 0d d3 c4 bd 6c 1e e4 3d
       0.12721524 0.16136959 -0.09610567 0.11138615
000390 cd e3 3e 3e b8 55 6a bb 7f 6c 6a bd ac 05 97 3d
       0.18641587 -0.0035756659 -0.057232376 0.07374129
0003a0 e3 bf a4 3d 7d 0c 75 3c 1a 68 3b be 2d c3 92 3d
       0.08044412 0.014956591 -0.1830143 0.07166133
0003b0 83 fd 25 3e 29 0f 22 3e 15 29 b3 3c 08 52 0a be
       0.16209988 0.15826096 0.021870175 -0.13507855
0003c0 02 54 64 be 83 24 9d bd 28 49 80 3e 32 90 29 3e
       -0.22297671 -0.0767298 0.25055814 0.16558912
0003d0 d5 c7 e4 bd fe 27 97 3d e3 0b e9 bd 2d 99 d2 bb
       -0.111709274 0.07380675 -0.1137922 -0.0064269514
0003e0 0c e2 9d 3c 18 2b 76 3e 87 e8 40 3e 59 84 74 bd
       0.019272827 0.24039876 0.18838702 -0.05969653
0003f0 1a 6b 37 3e 07 d6 aa 3c 57 a4 b3 3d 92 4a da 3d
       0.1791195 0.02085401 0.0877158 0.106587544

fc2.bias f4 [64]
000000 0d e2 0c 3e f8 1b 49 3e 64 3a be bd 54 c6 29 3e
       0.13758107 0.19639575 -0.09288481 0.16579562
000010 a1 d3 b9 3c 66 a1 69 bd be e7 89 bd 24 63 7e be
       0.02268392 -0.057038687 -0.067336544 -0.24842507
000020 af f8 1c 3e 2b 99 ed 3d 9c c0 7f bc 1b 80 55 3e
       0.1532924 0.1160148 -0.0156098865 0.2084965
000030 37 ae 03 be 12 ab ff bd 51 23 ee bd 18 66 06 bc
       -0.12859426 -0.12483801 -0.1162783 -0.008203052
000040 9b 42 b1 bd 63 de ae bd 69 51 4b 3d a3 54 51 be
       -0.08655282 -0.08538511 0.049638186 -0.20442443
000050 8c 45 39 bc a2 11 ef 3d 74 2d 24 3e 53 46 48 3e
       -0.011308085 0.11673285 0.16032964 0.19558077
000060 47 9d 38 3e 65 76 c8 bd 97 6c 4b be 29 72 59 bd
       0.18028747 -0.09788207 -0.19865642 -0.053087387
000070 6d 18 ce bd c8 1d 3f 3e 58 36 09 bd 6a 99 83 3e
       -0.100632526 0.18663704 -0.033499092 0.25702983
000080 a8 a3 2c 3d 22 f7 b1 3d 76 c2 f2 3d 5d 97 0c 3d
       0.042148262 0.08689715 0.11853497 0.03432404
000090 fb f8 a7 bd f4 d9 94 3e 28 ae 26 be 74 09 33 3e
       -0.08201786 0.29072535 -0.16277373 0.17484075
0000a0 d3 83 4a bd 72 96 1e be e0 b0 91 bb 84 79 36 3e
       -0.049442124 -0.15487078 -0.004446134 0.17819792
0000b0 c5 30 00 3e 56 d0 35 3e f7 1f f6 3d 05 4b 40 bc
       0.12518604 0.17755255 0.120178156 -0.011736636
0000c0 29 f2 23 bd fa df 93 3d 65 4d 36 bd 16 ad 8a 3e
       -0.040025864 0.072204545 -0.044507403 0.2708518
0000d0 07 cc e2 3d 08 9b 78 bd 86 c2 96 3b 0e 60 f9 bd
       0.110740714 -0.060694724 0.0046008257 -0.12176524
0000e0 64 fd 11 3b 5d f6 87 bd 0f 2a 25 3e e7 c3 f7 bd
       0.0022276277 -0.06638787 0.16129325 -0.12097912
0000f0 ab f4 87 3e 1c fd ff 3d e4 66 40 be 3d 4e 3b be
       0.26553854 0.12499449 -0.1878925 -0.18291564

fc3.weight f4 [64, 64]
000000 a6 95 11 3e 37 96 9d 3d 49 1b 29 bd 6d 32 df bd
       0.14217243 0.07694667 -0.041285787 -0.1089829
000010 5f 62 3f 3e eb a5 fd bd f0 1b 87 bd a9 91 2c be
       0.1868987 -0.12385162 -0.065971255 -0.1685244
000020 7d 25 2d 3e 4a 99 e1 3d a7 a7 83 bc 52 a8 76 3c
       0.16908832 0.11015566 -0.016071154 0.015054779
000030 63 81 a5 bd 03 3d 14 bd b8 1e 83 3c a1 eb 0c 3e
       -0.08081319 -0.036190998 0.016005859 0.1376176
000040 0a d8 7c 3d a9 f3 03 be 0c f9 f0 3d 8a 39 43 be
       0.06172947 -0.12885918 0.11766252 -0.19064918
000050 c7 4a 1f be dc cd d4 3d b8 53 78 3e 74 43 1a 3d
       -0.15555869 0.10390827 0.24250686 0.037661985
000060 56 64 2d 3e 70 7f 49 bd 73 74 21 be 81 51 1d be
       0.16932806 -0.0491938 -0.15767078 -0.15363123
000070 40 fc 4a 3d bc 6d 8d 3e c1 a9 fc 3c c0 10 44 3e
       0.04955697 0.27622783 0.030842664 0.19147015
000080 8c 93 41 3e 67 e8 37 3e fe 18 4e 3e 44 c3 0c be
       0.18903941 0.17959748 0.20126721 -0.13746363
000090 d9 8c 41 bc d6 9e 5d 3d 7e 92 6a 3c 43 07 fc 3c
       -0.011813366 0.054106556 0.014317153 0.030765181
0000a0 82 2b d7 bd f8 2a 78 bd 1a 93 3a 3d e3 41 f4 3d
       -0.10506345 -0.060587853 0.045550443 0.119266294
0000b0 d2 03 06 3e 91 95 84 3d f5 e5 66 3e ee 64 94 3d
       0.13087395 0.0647384 0.22548659 0.07245813
0000c0 10 7f ab bd d6 21 52 3e 02 a9 07 3e f4 e7 df 3d
       -0.083738446 0.2052072 0.13248065 0.109329134
0000d0 d7 b0 18 bc 04 17 9e 3c 20 6d a1 3d 81 de 34 3d
       -0.009319506 0.019298084 0.07882142 0.04415751
0000e0 b2 36 45 3d 04 9f a9 bd 00 bb 3b 3d b0 bf 4a 3b
       0.048147865 -0.08282283 0.045832634 0.0030937009
0000f0 04 b5 75 3d 36 4b 4c 3c 79 a7 d7 bd 0d cd 84 be
       0.059987083 0.012469104 -0.1052999 -0.2593769
000100 58 84 30 3d 57 e4 1d be 8b 38 d5 bc 3a 1d d0 bd
       0.043094963 -0.15419136 -0.026027938 -0.101618245
000110 b9 80 a5 bd d1 a2 47 3e 94 26 48 3d 32 41 dc 3d
       -0.080811925 0.19495703 0.048864916 0.107546225
000120 83 49 b9 3c 1e 99 5c 3d f4 e3 81 bc 94 98 06 be
       0.022618061 0.05385696 -0.015855767 -0.13144141
000130 8e b9 9d bd 59 59 36 bb 80 03 50 bb db 56 11 be
       -0.077014074 -0.0027824251 -0.0031740367 -0.14193289
000140 05 c4 2d 3d 3c 2c 34 3d f6 26 3f 3e 82 51 34 3e
       0.042423267 0.043987498 0.18667206 0.17609218
000150 ef 74 0f 3e d8 a6 47 bd 53 38 15 3d e5 9a 98 3d
       0.1400945 -0.0487431 0.036430668 0.07451419
000160 67 30 12 be bc 5e 5a bd 8c 53 36 3d 92 37 12 3e
       -0.14276277 -0.053313002 0.04451327 0.14279011
000170 3f 55 cf bd 2f e5 ca 3d dc fd 3f 3e 8b 17 06 be
       -0.10123681 0.099069946 0.18749183 -0.13094918
000180 6f 65 aa 3d 40 95 ea bc 95 ee 67 3d 36 9e 94 bb
       0.08320128 -0.028635621 0.056624014 -0.004535462
000190 ba 86 35 3e 22 91 8e 3d b2 1e 8b bc e3 6e ce bd
       0.17727175 0.06961276 -0.01698241 -0.10079744
0001a0 97 27 56 3d 9c c5 1f 3d f8 c0 d2 3d 3c 57 26 3d
       0.05228385 0.039006814 0.10290712 0.040610537
0001b0 b8 de 78 bd bc 9d 37 ba 7d 33 d0 bd 5d 6e c3 bc
       -0.060759276 -0.00070044 -0.101660706 -0.023856336
0001c0 9f 57 5d 3e 63 e9 06 3e da 20 f5 3c 44 38 26 3c
       0.21615456 0.13174967 0.029922891 0.010145251
0001d0 b3 f5 df 3d ca 73 cd 3d 07 c6 b1 3d e8 e6 da 3d
       0.10935535 0.10031851 0.08680349 0.10688573
0001e0 c9 0d d7 bc 40 87 86 3c 23 cc 08 bd 94 6a 2d 3d
       -0.02625169 0.016421914 -0.033397805 0.04233797
0001f0 73 38 21 3e 44 0f d5 3d 80 12 99 3d 5a a2 da 3d
       0.1574419 0.10403302 0.07474232 0.10675497
000200 7f 94 de bd 2e d9 2e 3d c0 b2 15 3e b2 e4 19 bd
       -0.10868167 0.042687587 0.14618969 -0.037571616
000210 d6 a0 5d be be e7 78 3d 3c ec 08 bd 18 b8 58 3e
       -0.21643385 0.06076788 -0.033428416 0.21163976
000220 e6 30 29 be a2 45 c0 3d 86 44 03 be a3 ce e5 bc
       -0.1652256 0.093882814 -0.12819108 -0.028052634
000230 46 ea c0 3b 36 fd fe 3d ee c0 ed bd 8c e6 10 be
       0.0058873026 0.1245064 -0.11609064 -0.14150447
000240 2a 9c c4 3d 65 8c 32 3e f0 07 51 3d b7 58 4b 3d
       0.096000984 0.17436369 0.05103296 0.049645152
000250 d3 a5 65 3e 05 eb 1c be fb f9 0d bd d6 9b ca bc
       0.22426538 -0.15324028 -0.034662228 -0.024732511
000260 5d 0a 83 bd a4 7a dc bd bd e0 d9 3d 3a 4c b6 3d
       -0.06398461 -0.10765579 0.106385686 0.08901258
000270 00 f6 6f bc 9a ac 70 3d f8 72 0c 3d 88 73 26 be
       -0.014646053 0.058758356 0.03428933 -0.16255009
000280 a2 0a 58 bc 8e c3 22 be ad 7c 83 bd 4c 85 06 3e
       -0.013186129 -0.1589491 -0.064202644 0.13136786
000290 df 4c dc 3d 03 52 ab bd db 84 51 3e f2 f1 1a be
       0.107568495 -0.08365252 0.20460837 -0.15131357
0002a0 64 8f d0 bd f8 7c df 3c 4d b0 fb 3b 08 d2 2c 3d
       -0.101835996 0.02728127 0.007680929 0.04219249
0002b0 77 e9 a8 3d 8c 3b a5 bd 6d af 3a be 0d c4 b6 bd
       0.08247655 -0.08067998 -0.18230982 -0.089241125
0002c0 5a 44 e3 bd 6a 88 11 3e d4 a1 d7 3c 60 08 77 3d
       -0.110970214 0.14212194 0.026322283 0.06031072
0002d0 72 29 8d 3c bc 2c 1f be 5c 3d c3 3d ff 8b 01 3e
       0.017231677 -0.15544409 0.09533188 0.1265106
0002e0 92 1e 10 3e b6 ed 41 3e e8 13 ec bd ee 28 81 3d
       0.14074162 0.18938336 -0.11527234 0.06306635
0002f0 15 39 09 bb 3e 70 6d bd 5c ef 32 3e 60 d7 ad bd
       -0.0020938565 -0.05796837 0.17474121 -0.08488345
000300 93 61 77 be f5 b8 13 3e fd f7 87 bd e9 ba 1c 3e
       -0.24158315 0.14426024 -0.06639097 0.15305676
000310 4f 16 f5 bc c1 0b d8 3d 34 ac e8 3d 8a 9d c1 3c
       -0.029917864 0.10549117 0.1136097 0.02363469
000320 d4 0b 1f 3d 32 e4 a2 3d ac eb 2e 3d 49 4f a9 bd
       0.03882964 0.07953681 0.042705223 -0.082670756
000330 ea 6f 06 3e 5f d9 df bd 34 5e b7 3c f6 1c 0e bd
       0.1312863 -0.10930132 0.022383787 -0.034695588
000340 aa 34 10 3e f8 55 93 3d c0 4a c1 3c 1a 8f a6 3e
       0.1408259 0.071941316 0.023595214 0.32531053
000350 0a 7e 91 3d 28 2e 6f 3d 93 2f 05 be 95 98 24 bd
       0.07104118 0.058393627 -0.1300643 -0.040184576
000360 a8 5b 10 3e f4 2b b8 3d 00 3a 94 3d b0 36 c4 3d
       0.14097464 0.089927584 0.07237625 0.09580743
000370 f6 5e c7 3d 95 4f 08 3d e6 3d 24 3e 94 33 14 3e
       0.09734909 0.03327902 0.16039237 0.144728
000380 f4 85 aa 3d 4f 3c 07 3c a5 86 2c 3e 7b 0f a6 bb
       0.08326331 0.008254125 0.16848238 -0.0050677634
000390 3d 31 2c 3e 00 b6 41 be d8 fe 13 3d 95 6f 32 be
       0.16815658 -0.18917084 0.03613171 -0.17425378
0003a0 bb 01 c7 bc ac 67 59 3d 7a 30 97 bc 50 1f f4 bd
       -0.024292817 0.053077385 -0.018455733 -0.11920035
0003b0 00 2c 12 3e 59 30 a3 3c b2 10 44 bb 68 fd 14 be
       0.14274597 0.019920515 -0.0029917178 -0.14549792
0003c0 7c a9 20 3d 0c cb 8a 3c 17 9e 0f 3e 88 3a 9f bd
       0.039224133 0.016942523 0.1402515 -0.07774836
0003d0 84 9b 9d bd 8a a4 3c be 82 0d 22 be ce 5b e1 bc
       -0.07695678 -0.18422142 -0.15825465 -0.027509596
0003e0 a4 cf 18 3e 97 de e4 3d e8 a1 ea bd 04 ac ef 3d
       0.14922959 0.11175268 -0.114566624 0.11702731
0003f0 76 d1 4f 3d bc 08 bf bc 30 75 31 bd 0d 8a 14 3e
       0.050736867 -0.023319595 -0.04332465 0.14505787

fc3.bias f4 [64]
000000 e4 c7 1a 3e a7 99 75 bb a5 73 4b 3d 71 55 a5 3d
       0.15115315 -0.0037475617 0.049670834 0.08072937
000010 67 da 80 3c 72 cd 10 3e a7 37 c9 3d 99 09 52 bb
       0.015729142 0.14140871 0.09825068 -0.0032049178
000020 5d f9 ac 3c 2c 6c bc 3c 09 25 e4 bd 9c e6 a7 bd
       0.021115 0.0230008 -0.111398764 -0.08198282
000030 c3 73 34 be 00 d3 43 bd ea 74 fd bc f4 51 d7 bd
       -0.17622285 -0.047808647 -0.030939538 -0.10513678
000040 d8 6f eb bd 2b 1d cd bd f7 1e 6b 3c b9 5b 74 bd
       -0.11495942 -0.10015329 0.014350644 -0.059657786
000050 03 df dc bc 75 b3 c5 3c cb 02 a2 bd 75 52 da bd
       -0.026961809 0.024133423 -0.07910689 -0.10660259
000060 bb 91 d4 bd 18 7e 30 3d 43 ef 14 be 25 ae 13 be
       -0.103793584 0.043089002 -0.14544396 -0.144219
000070 89 e1 cb bd 15 56 a0 3d a1 4b 6a 3e 0c 1d 1a bd
       -0.09955127 0.07828919 0.22880413 -0.037625358
000080 22 63 50 3e 0c 61 41 ba d4 e3 cb bd 72 89 de bd
       0.20350316 -0.0007376827 -0.09955564 -0.10866059
000090 6c e3 59 bd d9 b0 e2 bd ba 16 10 3d 30 16 4c 3c
       -0.053195402 -0.11068887 0.035177924 0.012456462
0000a0 09 51 13 be e7 72 8e bd d9 10 13 be 0c d2 73 3e
       -0.14386381 -0.0695551 -0.14361896 0.23810595
0000b0 1a 8c 3e 3e f4 1c b4 bd 34 a0 ac 3d c9 a5 b8 bd
       0.18608132 -0.08794585 0.08428994 -0.09015996
0000c0 e2 ec 46 3e af ed 7a bd 1f 70 5f bc 74 d0 4f 3e
       0.19426301 -0.06126183 -0.013637572 0.20294362
0000d0 e2 91 3d bc 6a 12 7d 3c f0 35 64 bd 01 ff c9 bc
       -0.011570426 0.015446285 -0.0557155 -0.024657728
0000e0 cd fd 4b 3e 4a c9 95 bd bd 24 3d bd 6f a1 3b bd
       0.19921036 -0.073137835 -0.046177614 -0.045808252
0000f0 e8 9e 95 bd fc 88 5f bd d0 e0 03 bc a6 4f 0c 3e
       -0.073056996 -0.054573998 -0.008049205 0.13702258

classifier.0.weight f4 [32, 64]
000000 68 3f cc bc 42 3c 9c bb 82 54 28 3e 11 d9 81 bb
       -0.024932578 -0.0047679255 0.16438487 -0.003962644
000010 29 3e dd bc bb d3 50 bd 39 05 60 3d d8 e9 94 3d
       -0.02700718 -0.050983172 0.05469248 0.07271165
000020 c3 6e 6f 3b fd 1c ac bd 1a 66 ea 3b 5a e8 45 bd
       0.0036534525 -0.084039666 0.0071532847 -0.04831729
000030 4c 1d 48 3e 9a c2 6f bd 80 4d e4 3d e3 5f f3 bb
       0.19542426 -0.058535196 0.111475945 -0.007427202
000040 80 4c 7e bc e1 03 96 3d e8 d5 5b 3d a5 42 86 3e
       -0.015521169 0.073249586 0.053670794 0.2622272
000050 9b 51 d8 bd 44 b9 04 3e b3 03 91 3d 50 ec 02 bc
       -0.1056244 0.12961298 0.07080784 -0.007990912
000060 84 30 4e 3e 6c 99 66 3d 94 4e 17 3e 4a c7 d8 3d
       0.20135695 0.05629866 0.14776069 0.10584886
000070 0f 2d f4 3d 80 ef fb bd bc bc 12 be e9 8b 67 3e
       0.11922657 -0.123015404 -0.14329809 0.22611965
000080 fa 30 d3 bd 04 56 26 3d c0 99 23 3b 32 f4 88 3d
       -0.10312076 0.040609375 0.0024963468 0.066872016
000090 fb e4 2c 3e ca fa 8c bd 2f ce 82 bd 44 ee 1f be
       0.16884224 -0.06883772 -0.06386983 -0.15618235
0000a0 8a 4c 31 3e da 86 58 3e 18 da 02 3c 1b 0a ca 3b
       0.17314354 0.21145192 0.007986568 0.0061657554
0000b0 50 8e aa bd 53 2b 01 3d cb 6e 42 3e b9 03 f6 bc
       -0.08327925 0.031535458 0.18987577 -0.030031072
0000c0 e9 4a 89 bc 20 9a 39 3c 3d 60 90 bd 4f 6f eb b9
       -0.016759353 0.01132825 -0.07049606 -0.00044905624
0000d0 0c 36 24 3e 56 85 be bd fc c9 95 3d d3 df d7 3d
       0.16036242 -0.093027756 0.07313916 0.10540738
0000e0 89 04 bf 3d be 63 44 bb 2c 2e 8d 3e f6 33 04 3d
       0.09327037 -0.0029966678 0.2757429 0.032276116
0000f0 56 73 46 3e 28 38 6a bd 92 26 23 3d a2 bc 4c 3d
       0.19379935 -0.05718246 0.039831705 0.04998458
000100 22 8c 5d 3e b9 d0 c2 3d 2c 2d 4a 3d 65 4d d7 3c
       0.21635488 0.09512467 0.049359486 0.026282022
000110 08 44 74 be 13 cc 9c 3d 5f 13 6c 3e aa 8e 19 3e
       -0.23854077 0.076561116 0.23054264 0.14995828
000120 c7 e3 00 be 7b be 9c 3b 43 af 4d 3d 09 bd 06 bd
       -0.1258689 0.004783449 0.05021597 -0.03289512
000130 33 e7 b3 bc c0 d2 aa bb d1 75 85 bd 59 1d 13 be
       -0.02196083 -0.0052131116 -0.06516612 -0.14366664
000140 20 35 7c bc 27 5e 2d 3d a2 b4 07 3d 51 b0 81 be
       -0.015393525 0.04232612 0.03313125 -0.2532983
000150 69 5a 56 bc 4d c6 7b 3d cc 87 0e be 15 38 f0 bd
       -0.013083079 0.06146841 -0.1391899 -0.11729447
000160 15 46 3e 3b a9 38 4c 3e de 32 a6 3d e4 35 35 be
       0.0029033471 0.19943489 0.08115171 -0.17696339
000170 4c 46 80 be 4a dd 8a bd b9 df ce 3d 66 38 4e 3d
       -0.25053632 -0.06780489 0.101012655 0.050346754
000180 5f 5d 60 3e d4 bf f8 bc 84 ae 12 3d 34 dc ec bd
       0.21910618 -0.030364908 0.035810962 -0.11565438
000190 ac 6b 73 bd eb ab de 3d 65 66 63 bd 2f 5a 4b be
       -0.059428856 0.108726345 -0.055517573 -0.19858621
0001a0 fa 33 43 be bd e6 46 3d ff c1 62 be 41 8f 48 3e
       -0.19062796 0.048559893 -0.22144316 0.19585897
0001b0 35 35 2b 3d 1c 1f 23 be 79 5d 56 bd f4 07 19 3e
       0.04179879 -0.15929836 -0.052335236 0.1494444
0001c0 4f 97 ce 3a 77 45 cd bd 34 b2 ab 3d fa 21 73 3d
       0.0015761646 -0.10023015 0.08383599 0.059358574
0001d0 8b 75 73 bd 2f b9 73 3d 69 f0 44 be 70 a0 90 3c
       -0.05943827 0.059502777 -0.19232334 0.017654628
0001e0 25 22 6a 3d a5 c3 86 ba f0 be fb 3c dc a3 81 bc
       0.05716147 -0.0010281695 0.030730695 -0.015825205
0001f0 12 25 22 be b3 b6 83 3d c8 f2 aa 3c e1 a0 90 3d
       -0.15834454 0.064313315 0.02086772 0.07061935
000200 d3 50 41 3e a5 c3 62 bd 09 cc 16 bd 7e 9e 36 bd
       0.18878488 -0.055362362 -0.036815677 -0.044584744
000210 45 0c fa 3d 6e 8f b2 3d 26 ad 81 3d eb d3 3f bd
       0.122093715 0.08718763 0.063318536 -0.04683296
000220 eb 0e bd 3d cb 0f 51 3e 0d f5 6f bd 6e 70 d0 3d
       0.09231361 0.20416181 -0.058583308 0.10177694
000230 6e b3 55 3a 33 20 15 3d 2c f9 de bc e8 5a ce bd
       0.0008152042 0.03640766 -0.027218424 -0.10075933
000240 ca ca 98 bd 10 65 7b bd 58 7a 42 be b1 1c 1d be
       -0.07460554 -0.061375678 -0.18991983 -0.15342976
000250 af ac f4 bd 77 b8 5c be 85 5f b9 bd ec 9d 01 3e
       -0.11946999 -0.21554743 -0.09051422 0.12657899
000260 0b 3e 9e 3c 9c e0 8d bd bd 5f 24 be e8 e2 0b bd
       0.019316694 -0.069276065 -0.16052146 -0.03415194
000270 aa a9 c2 3c 0b 04 d6 3c 55 df ad 3d 64 cd 5e be
       0.023762543 0.026124975 0.08489863 -0.21758038
000280 fa 7d a5 3d 1b 70 ce 3d a4 22 ec 3d cf 9b d5 3c
       0.08080669 0.10079976 0.11530045 0.026075272
000290 84 b3 94 3d 6a b7 0b 3b 5f 8b 72 3e c3 a6 8b 3e
       0.072608024 0.002131904 0.23685978 0.27275667
0002a0 1c bc b9 bd 93 73 c0 bd e9 83 da bb 58 5c 0a 3e
       -0.09069082 -0.09397044 -0.006668557 0.13511789
0002b0 34 fa 23 3d f5 31 04 3e fe f7 97 bc 59 b5 4e 3d
       0.040033534 0.12909682 -0.01855087 0.050465915
0002c0 ae 8a e1 3d fa 51 b8 3d 60 0f fc bd b2 42 9b bb
       0.11012779 0.09000011 -0.1230762 -0.0047381753
0002d0 aa 83 09 be af 9d 4a 3d 4d 6d d9 3d 54 fb 3b bd
       -0.13429132 0.049466785 0.106165506 -0.045893982
0002e0 fd 8f b8 3d a9 7e 6a bd 07 71 8f bd 41 73 d9 bd
       0.090118386 -0.0572497 -0.0700398 -0.10617686
0002f0 43 f9 48 3d d3 ea e8 bd c1 d7 06 be c0 50 47 3d
       0.04906584 -0.11372914 -0.13168241 0.048660994
000300 2e 89 81 3e 53 a2 55 bd 12 0f 09 3d 15 f6 ba bb
       0.25299972 -0.052156758 0.033461638 -0.005705605
000310 64 c9 07 bd ee 00 b9 3d 59 32 46 3e 9d 56 fd bd
       -0.033151045 0.090333804 0.19355144 -0.12370036
000320 90 95 97 3d da d9 d7 3c c4 37 7b bd 4e 05 80 bd
       0.07401574 0.026348997 -0.06133248 -0.06251012
000330 ec 8c 67 be 65 37 de 3d 10 21 23 be a5 eb 08 be
       -0.22612351 0.108504094 -0.15930581 -0.13371141
000340 b8 22 1b bd da 3d 1e 3c 6f 0b 24 bd 6d 39 f2 bd
       -0.037874907 0.009658301 -0.040049966 -0.11827359
000350 b1 29 1f bd f0 c6 1a bd cd be 8c bd 4d 86 40 3d
       -0.03885812 -0.037787378 -0.0687233 0.04700308
000360 58 34 8e bd d9 2f 44 3e 43 0d a7 3b 32 88 af bd
       -0.069435775 0.19158877 0.0050980165 -0.08570899
000370 73 2a 58 be c6 42 ab 3d 19 45 81 3c d1 fa bd bd
       -0.21109943 0.083623454 0.015780019 -0.09276355
000380 82 b7 e8 3d 28 87 10 3e 4c c1 b7 bd 93 04 ad bd
       0.11363126 0.14114058 -0.08972415 -0.08448138
000390 1f 46 f3 3c 96 8f 86 3d 18 d7 92 3d 4f db 86 3d
       0.029696522 0.065703556 0.07169932 0.065847985
0003a0 e0 d7 23 3b 32 68 a3 bd 66 df e7 bd 0f cf 2d 3e
       0.0025000498 -0.07978858 -0.11321907 0.16973518
0003b0 8e be 66 3e 59 03 d7 bd a7 67 88 bc 82 bd b0 bc
       0.22533628 -0.104986854 -0.016650988 -0.02157474
0003c0 65 72 6a 3d 45 fc b7 bc 62 29 10 be ed ff 34 3e
       0.057238 -0.022459159 -0.14078286 0.17675753
0003d0 cd 1a e5 bd 75 64 f5 bd b1 15 87 bd ec 6b 28 be
       -0.111867525 -0.11982051 -0.06595934 -0.16447419
0003e0 d7 ef b1 3c 57 b8 15 be 1c a6 34 be 04 d1 be bc
       0.02172081 -0.14621101 -0.1764149 -0.023293026
0003f0 fa f9 bb bd 6a 3f bd bc 92 d9 32 3c ba 6d 97 bc
       -0.091785386 -0.023101527 0.010916131 -0.018484939

classifier.0.bias f4 [32]
000000 8d c8 bc bd df d1 0b 3e 2b 48 3d 3e 81 e1 2a 3e
       -0.092179395 0.13654278 0.18484561 0.16687585
000010 57 b3 0e bd 47 4a d4 bd a4 39 fd bd d5 d5 65 3d
       -0.034839 -0.1036573 -0.1236451 0.05611213
000020 55 e2 9d bd fc aa 27 bd f3 4c da 3c f6 5c e8 3c
       -0.07709185 -0.040934548 0.02664802 0.02836464
000030 64 7a 14 3d c4 d0 0f be ab 5e 96 bc d4 15 1a bd
       0.036249533 -0.14044482 -0.018355688 -0.037618473
000040 84 3f f9 3d 2a 34 e8 bd 30 e6 49 bd 25 e2 1e bd
       0.12170318 -0.113380745 -0.04929179 -0.038789887
000050 4c 3f 10 bd 00 33 0c bb ee 68 b0 3c e4 c0 c1 3d
       -0.035216615 -0.0021392703 0.02153441 0.09460619
000060 b2 0a c9 3d 30 94 15 3d 50 bb 89 bd 62 eb 68 bd
       0.09816493 0.036518276 -0.0672518 -0.056865104
000070 ed 1e fe 3d ec 09 55 3c 8c bc 8f 3d bc 32 aa bd
       0.124082424 0.013002854 0.07018384 -0.08310458

classifier.2.weight f4 [3, 32]
000000 32 c1 a5 3d 9e f8 8d 3e 4d d6 9f bc a4 8b d6 3c
       0.0809349 0.27728742 -0.019511366 0.026189633
000010 79 9b f1 3c 39 de 90 be 74 d3 7a be 16 26 59 3e
       0.02949308 -0.28294542 -0.24494725 0.21205935
000020 15 ca 8a bd 70 c6 cf 3d ed fe 12 3e 62 2d 8f 3e
       -0.06776825 0.10145271 0.14355059 0.27964312
000030 e4 15 c7 bd 51 2d 27 be b8 62 e5 3d f8 b2 0b bd
       -0.09720972 -0.1632588 0.1120047 -0.034106225
000040 02 16 c5 3b 22 cb 22 be ca 05 00 be 8e 27 9a bd
       0.0060145864 -0.15897802 -0.12502208 -0.07527076
000050 ae 3f a4 3d d6 fd f3 3d 44 69 85 3d b8 44 b9 3d
       0.080199584 0.1191365 0.065142184 0.0904631
000060 3c e6 96 3e 6c 40 4c 3d a0 5d d6 3b 16 9c 81 bb
       0.2947253 0.049866125 0.0065419227 -0.0039553745
000070 7a d0 0e 3e 73 fb 26 3d b2 ba b7 3a 4c b7 18 3d
       0.13946715 0.040767144 0.0014017432 0.03728418
000080 13 58 11 be aa 25 11 be 9f a3 10 3e 6b 20 3a bd
       -0.14193754 -0.14174524 0.14124916 -0.045441072
000090 9b 20 d4 3d b4 85 45 3e 52 b2 c3 3d 46 8a 83 bc
       0.103577815 0.19289285 0.09555496 -0.016057145
0000a0 a1 34 c6 bd e6 34 00 3e 83 d3 bf be 84 a2 6b bc
       -0.09678007 0.12520179 -0.37466058 -0.014382008
0000b0 94 93 dc bd 35 24 7b be f7 f0 07 be c5 9d e8 bd
       -0.10770336 -0.2452553 -0.13275515 -0.11358217
0000c0 fd 18 75 3e 72 a1 7c 3e 7e c8 f5 bd b0 83 6a be
       0.23935314 0.24670961 -0.120011315 -0.22901797
0000d0 07 1c 22 3e dc de 2b 3d f6 c1 0c bc 90 e1 d0 3d
       0.15831004 0.041960582 -0.008591166 0.10199273
0000e0 37 eb 4e bd 16 98 c3 bd ea c8 c2 3d 6b 4a 3a be
       -0.050517287 -0.095504925 0.095109776 -0.1819245
0000f0 4e 2a 96 be 02 04 33 3d 7a 0b 45 bd c7 e5 89 bd
       -0.2932915 0.043704994 -0.048106648 -0.0673328
000100 14 91 45 3e 54 49 56 be a1 89 4c be 6d 19 74 be
       0.19293624 -0.2092641 -0.19974376 -0.23837824
000110 a2 07 18 be 64 c2 0c 3d a0 ef 63 3e 7b a0 0c be
       -0.14846662 0.034365073 0.22259378 -0.13733093
000120 e9 54 3b 3e da 36 68 be 28 50 e6 3c 36 1a 7d be
       0.1829411 -0.22677174 0.028114393 -0.2471703
000130 00 73 3f bc 13 49 f2 3d f8 10 8e bd 3b 32 26 3e
       -0.011685133 0.11830344 -0.0693683 0.16230099
000140 9c 61 b0 bc 9b a6 2c 3d b7 27 34 3e c1 cd 1e 3e
       -0.021530919 0.042151075 0.17593275 0.15508176
000150 90 8a 63 bc c2 e8 ac 3d 02 a1 84 3e c4 96 93 be
       -0.013888016 0.084428325 0.2590409 -0.28825963
000160 e4 5e 24 be b6 ce af 3d 84 7f 2f bd f7 cc 0b be
       -0.16051823 0.08584349 -0.042846218 -0.13652407
000170 7a 82 18 be 08 3a a8 bd 24 69 82 3d 61 95 4f 3e
       -0.14893523 -0.082141936 0.0636771 0.20271827

classifier.2.bias f4 [3]
000000 97 a9 e6 3b 70 27 bf bd 4a 14 2e bd
       0.0070392597 -0.09333694 -0.042499818
